training/denoiser/ppmpi_lr_0.001_wd_0_bs_64_mxNs_0.1_fixNs_1_data_mnNs_0_nF12_nB4_lieb4_gr12_rMn1.0_0.0/epoch99.pth (torch, 251087 bytes, 49 tensors)

conv0.weight f4 [12, 1, 3, 3]
00000000: aab8 26be a990 d0be 20b1 febd 0b74 933e
00000010: c0b2 743e a554 713e 161e dc3d cd5f 893c
00000020: be73 95bd baaa 2f3e 24d7 763e a064 2fbe
00000030: 27d3 0d3d 4497 0bbf 2e7d e03d 87f8 50bd
00000040: 6dbc 23be 587d 83be 8b3c 803c c0db 233d
00000050: f52c 923e f5f9 e33d 4f3d c03e dee2 ebbc
00000060: bb77 5c3e e849 4b3d 6792 42be 0787 e63d
00000070: baf7 603e d673 06be d767 83bb 4b79 f13e
00000080: 2c73 d33e 3e7e f3bd 275f bdbe 74ff 90bd
00000090: 1038 193e cae5 003e ce91 24be 15a4 df3e
000000a0: 4900 24bf a868 f43d 5897 84bd 54c1 89bc
000000b0: 143e 943d cb8f 3e3e 9a6c 653d f53f 01be
000000c0: 26b9 63bd eed4 80be 77f2 a73b 94f0 3c3d
000000d0: 35a5 793e be53 90bc e901 96be 8bf2 8f3d
000000e0: 538a 3ebe 9669 f5bc 64b5 c53e 4c74 7f3e
000000f0: 9b6b 013b 19c5 a83e 45cd 05be 1810 f4bd
00000100: 89e1 5fbd 009e b03d 6cb4 a83d 3502 783e
00000110: 5aa9 89be 4b55 f83c d647 593e e142 96be
00000120: ae37 24be 1fbe 463e fa70 16be 7e62 2e3e
00000130: f637 c0be b3e1 323e 6b42 24be bf2a 363e
00000140: 92be 1b3e 5c64 73be 7ad6 8b3e 0953 8abe
00000150: cd68 c33b afdf 83be 3be6 dc3d 7cde cf3d
00000160: daa3 1d3e 2e66 d53d 3351 66be 5b26 6ebe
00000170: 0f54 113e 8c67 863d c7d9 3ebe 9358 dc3d
00000180: 9dcc 643e 2b6d 07be 39a0 953e e707 b43d
00000190: 542d 54be a059 00be 36ce c9bd 7901 b7bd
000001a0: 1f63 923e 39ca c2bd cbc0 9fbe 7f5b d9bd
-0.16281381 -0.40735367 -0.12436128 0.2879947 0.23896313 0.23567446 0.10747926 0.016769314
-0.07297467 0.17154971 0.24105507 -0.17128229 0.0346252 -0.5452769 0.10961376 -0.051018264
-0.15989847 -0.25681567 0.01565387 0.04000449 0.28549924 0.1113166 0.37546775 -0.028794702
0.21530049 0.04963103 -0.1900116 0.11256223 0.219695 -0.13130125 -0.0040101814 0.47162852
0.41298807 -0.11889313 -0.36986658 -0.07079974 0.14962792 0.12587658 -0.16071245 0.43679872
-0.64062935 0.11934024 -0.06474179 -0.016815819 0.07238403 0.1860954 0.056011774 -0.12622054
-0.055596493 -0.25162452 0.0051253396 0.04612787 0.24379428 -0.017618056 -0.29298332 0.07028683
-0.18607454 -0.029957574 0.38614953 0.24946707 0.0019747976 0.32962874 -0.13066585 -0.11917132
-0.054658446 0.08623886 0.08237538 0.24219592 -0.26887017 0.030314108 0.2121881 -0.293479
-0.16036865 0.19408463 -0.14691535 0.1702976 -0.37542695 0.1746891 -0.16040961 0.17789744
0.15209416 -0.23768753 0.2731207 -0.27016476 0.005963421 -0.25756595 0.107861005 0.101498574
0.15394536 0.1041988 -0.22491913 -0.23256819 0.14192222 0.06562719 -0.18637763 0.10759082
0.22343679 -0.13225238 0.29223803 0.0879057 -0.20720416 -0.12534189 -0.09853785 -0.08935828
0.28591248 -0.09511227 -0.31201777 -0.106131546

conv0.bias f4 [12]
00000000: ba12 74bd 9b7b 033e c3fd 42be 93cc 98bd
00000010: a654 7e3c 6125 78bd b277 a1bd e94f 013d
00000020: f3fa f53b bd68 af3d 2d50 d0bc 65f9 0b3e
-0.05958817 0.1284012 -0.19042115 -0.074608944 0.015523111 -0.060582522 -0.07884158 0.03157035
0.007506722 0.08564899 -0.025428856 0.13669355

conv1.weight f4 [12, 12, 3, 3]
00000000: b59d 463c 3f27 783d fef2 0ebe 1b0e 3b3d
00000010: 4baa 083e b189 98bd 7c5d d33c dc26 293e
00000020: c3f2 4cbc 595f 8c3c 4430 6a3d 7dba 8d3d
00000030: 99f1 7eba 69c9 0c3d 5346 05be 78e3 94bd
00000040: 98c6 2f3b 4583 c5bb 9cf6 d63b 357b a6bb
00000050: 8f12 873d eb80 7bbd e916 df3d e42a dfbb
00000060: b33b b3bc 51cd 583d 9571 ccbd 4ba6 30bd
00000070: 57ee b93d 3f82 4a3e 8b9b 4bbd c046 933d
00000080: 20b6 273e 044b 0abe fdf4 06be 4e33 22bd
00000090: 2899 9a39 3e05 4d3d ecc0 27be 0bba 0f3e
000000a0: 2c4d 0f3e 6ae6 57be 012f c1bb d3f7 de3c
000000b0: 1002 b5bd 0de9 303d 2bc3 663c 1004 f2bd
000000c0: b655 563d 8949 893c 3b1c 9fbd d1f0 34bd
000000d0: 6839 153d c7ee 46bc 1f23 09be 8acb c33c
000000e0: 0a9e d33c c82c b1bd 639a 67bc e7f6 70bc
000000f0: 45d4 13bd 1190 013e 6cb9 fc3c 8331 bc3c
00000100: fb8f d33c 3153 5dbd 96bc ef3c a261 dcbc
00000110: 3b9f c9bd a970 b23d cce2 c2bc b8b5 e33c
00000120: ee15 c73d 09c3 d5bd c5d3 a43b 7271 6d3d
00000130: e31a bebd 9e35 4bbd 4008 fcbc e68d 87bc
00000140: b63f adbc eb5d fe3d 9b7b 053d 1737 343d
00000150: fb81 993d 1d30 eebc 111e 66bd 9293 c23d
00000160: 7c66 32bd 2d97 fabd 45ce d33d 9b5f 9d3d
00000170: 0aeb 34bd c7ab b83c 6dc8 98bb ac3d 263b
00000180: 8d76 da3d ff4d 273c 9e19 71bd 9a0b 063e
00000190: c3c5 01be 7e28 a1bd ed75 5abd c3dc 54bd
000001a0: d86d b53c 47d3 953d 45d2 0fbe 0c26 323b
000001b0: 1c30 c43c 9dc2 30bd 3a4e 1d3d 402b 6cbc
000001c0: 1a48 1dbe 17bd 04be bf05 7fbd 1ae2 e03d
000001d0: bd5c 9b3d 2f14 073c 138c d03d a284 053d
000001e0: 99bb 123d 8a63 1c3e 4d41 ad3c 7fb6 40bd
000001f0: 791a 37bd 7375 9abc b415 babd a9c8 5bbd
00000200: bbfc 83bc 0b31 84bd 9b14 10be 01de e0bd
00000210: 768a 5f3d b132 08bc 0703 22bd 9843 27be
00000220: 62ed eebd d550 8cbd c464 b0bd b1b1 adbe
00000230: 94af b5bd ff1c 86bd 72ad 91bd 8579 9ebb
00000240: a6e0 5a3a 9744 2c3d 760c fcbb 3f66 7bbd
00000250: 1a4c e63d adfd 9bbd d86b 83bd 1624 463d
00000260: c3c9 3e3d 3e1a 22bd 09d5 11bd ed79 99bd
00000270: cb7d 5d3d 543d de3d e541 013d 7dd2 04bb
00000280: 7fad 9b3d b6cb 87bc d383 8dbd c562 2dbe
00000290: eb01 a73c c412 733d cca0 92be f4f1 813d
000002a0: 47e6 75bd 72a0 2dbd 6e02 8e3d dfdd f4bd
000002b0: ae60 4b3b 0aee 82bc 8783 993d b8a2 debd
000002c0: c466 003c 63d7 10bd cd2c 95bd 2070 423d
000002d0: 3a3f de3b 8837 223d 60cb 9d3d 0fbf 1dbd
000002e0: 80c8 183d f028 58bb bdd4 703d cefd 17bd
000002f0: ff04 2abb e2ec 6bbd 2aca d1bc 1c22 0a3d
00000300: 39f5 70bd 8fdc 99bc 61cb 863d 67e1 d0bd
00000310: db2a aa3c 6f6f c33c 0909 f43c a735 a93d
00000320: 3e02 8a3d e6bc f13c 64c5 133e 062e ce3c
00000330: 7ca7 9b3b 32ac ca3d 4f41 2f3d 8ec7 8f3c
00000340: b5b8 3d3e ce68 a9bb de54 87bd ee5b 273e
00000350: cb49 be3d 941b b7bc 86ff 2e3e cc89 d8ba
00000360: c0ff a73d b096 bbbd a4eb 633d f63c 803c
00000370: 0444 893d 630f 26bc f790 58bd 699d 06be
00000380: 30fb b53c 9065 cebd 82eb a73c 2ff8 033c
00000390: f263 8a3c bb13 003e 4b9d 9b3c dfd5 cfbc
000003a0: 8486 b73d 857d f8bb fd9a e2bb e87e 9abc
000003b0: 049c 0c3e 9475 f8bc fccd 65be 5461 d1bc
000003c0: 43e0 3e3e 5306 a23c a9ac b83d 2dc7 87bd
000003d0: bf08 033d 3039 ff3c 2ac6 d63d dfd8 f5bd
000003e0: e106 133e 34e5 4a3d a85f 1bbe 1b9d 21bd
000003f0: f776 0cbe 5cda 8fbc 747a 1c3c f115 75bd
0.012122561 0.060584303 -0.13959882 0.04566775 0.13346212 -0.074481376 0.025801413 0.1651873
-0.012509051 0.017135309 0.057174936 0.069203354 -0.0009725332 0.034371767 -0.13015108 -0.07269949
0.0026821252 -0.0060276114 0.00656016 -0.0050806054 0.06595337 -0.061402243 0.10893042 -0.006810533
-0.021879053 0.05293018 -0.099826016 -0.04312734 0.09078663 0.19776247 -0.049708884 0.07191229
0.16378069 -0.13505179 -0.13179393 -0.03959971 0.0002948728 0.050053827 -0.16382188 0.14035814
0.13994282 -0.2108399 -0.005895496 0.027217781 -0.08838284 0.043191005 0.014084618 -0.11817181
0.052327834 0.016758697 -0.077690564 -0.044174973 0.0364317 -0.01214189 -0.13392304 0.023900766
0.025832195 -0.086511195 -0.01413593 -0.014707304 -0.036091108 0.12652613 0.030850135 0.022972828
0.025825491 -0.054034416 0.02926473 -0.026902024 -0.09844824 0.087128945 -0.023789786 0.027796611
0.0972098 -0.10437591 0.0050301277 0.057969518 -0.09282472 -0.04961168 -0.030765653 -0.016547155
-0.021148544 0.12420257 0.032588582 0.04399785 0.07495495 -0.029075677 -0.056181017 0.09500803
-0.043554768 -0.12235866 0.10342077 0.07684251 -0.044169463 0.022542847 -0.0046625645 0.002536635
0.10667143 0.010211467 -0.05886232 0.13090363 -0.12673096 -0.078690514 -0.05333512 -0.051968347
0.022147104 0.073156886 -0.14045055 0.0027183322 0.023948722 -0.043154348 0.03840468 -0.0144146085
-0.15359536 -0.12962757 -0.06226134 0.109806255 0.07586048 0.008244558 0.10182967 0.03259719
0.03582344 0.15272346 0.021149302 -0.04704904 -0.04470298 -0.018854832 -0.09086171 -0.05365816
-0.016111722 -0.06454667 -0.1407036 -0.10979844 0.054575406 -0.008312867 -0.03955367 -0.16334379
-0.11666371 -0.06851355 -0.086129695 -0.3392463 -0.088713795 -0.06548499 -0.0711316 -0.0048362636
0.0008349515 0.0420576 -0.007691915 -0.061376806 0.11244984 -0.07616744 -0.06417054 0.048374258
0.046579134 -0.039575808 -0.035603557 -0.074939586 0.054075044 0.10851541 0.031556983 -0.0020267062
0.07601451 -0.01657663 -0.06909909 -0.16932209 0.020386657 0.05934407 -0.28638303 0.06344977
-0.060034063 -0.04238934 0.06934057 -0.11956381 0.0031032967 -0.015982646 0.0749579 -0.1087088
0.007837001 -0.03536166 -0.07283936 0.047470212 0.0067824395 0.03960374 0.07704806 -0.038512286
0.037300587 -0.0032983385 0.058796633 -0.03710728 -0.002594292 -0.057598956 -0.025609095 0.033723935
-0.058827613 -0.018781928 0.0658176 -0.10199242 0.020772388 0.023856847 0.029789465 0.082621865
0.06738709 0.02950902 0.14430767 0.02516843 0.0047501903 0.09896125 0.042786893 0.01755121
0.18527491 -0.0051699644 -0.06607984 0.16343662 0.09291419 -0.022352017 0.17089662 -0.0016520559
0.08203077 -0.09159601 0.055644646 0.015654068 0.06702426 -0.010135504 -0.052872624 -0.13145985
0.022214502 -0.10077965 0.020498041 0.008054777 0.01689336 0.12507527 0.018995902 -0.025370536
0.08961204 -0.0075833225 -0.0069154487 -0.018859342 0.1373139 -0.030329503 -0.22441858 -0.025559105
0.18640237 0.019778406 0.09017307 -0.06629787 0.031990763 0.031155199 0.104870155 -0.120042555
0.14358093 0.04953499 -0.15173209 -0.039456468 -0.13717256 -0.017560177 0.0095506795 -0.059835378

conv1.bias f4 [12]
00000000: a6aa c43c 1e4d 333c 9c1d 9a3d ad57 943c
00000010: 5a66 05bc 588e bcbd 9cc1 e03c ac23 8a3c
00000020: c997 b03c 328f 163d 18c4 1cbd 377b 983d
0.024007153 0.010943679 0.07525179 0.018108213 -0.008142078 -0.092068374 0.02743607 0.016862713
0.021556752 0.036757655 -0.038272947 0.07445376

rdbs.0.local_res_block.0.conv.weight f4 [12, 12, 3, 3]
00000000: bc1a 6a3d e568 71bd 7e80 33be 9b59 74bd
00000010: e6af 4fbd 1047 88bd d687 1a3e 0161 013d
00000020: 34ef 51bd 2c21 c5bd d7e2 23be 03ed 6b3c
00000030: 174e 0bbe 2bad 8e3c 1a4f 8b3d 1aeb 50bd
00000040: e610 ab3d 9856 1a3d b234 ae3e 2263 30be
00000050: ba3b 513b ad20 97bd 4c68 d9bd 4396 dfbc
00000060: 1263 9fbd 6945 f2bd d928 c6bd 35a4 253e
00000070: 1b68 a6bd eab5 14be a72e e1bb 5226 0d3c
00000080: 408a 36be 1c77 46be df9c d1bd 2181 62be
00000090: a0cf e03c a43e 013e 88e5 903c 3cfe 453e
000000a0: bcef e33c 3640 0a3d 784a 063e 13fa 0c3c
000000b0: 897e 773d 9233 593e 0200 a63c 9bd4 2cbe
000000c0: a576 773d d32e 9c3d 6015 3d3e 1b14 273d
000000d0: 6048 3f3d 9735 7e3e 1b21 8f3d f09b 53bd
000000e0: 42c2 85bc 01a9 4c3d eb2b efbd 98f8 22bd
000000f0: f786 4e3c 30cc fd3d c6fa 4b3c 24cd 533d
00000100: 9f23 213d b596 913c df56 413d 1c91 1c3c
00000110: 63d1 dc3d 0d19 aa3d 4718 053e 3b86 a53c
00000120: 3c83 0d3e 83aa c33d 665c eebc 86d9 d53d
00000130: 6302 4cbd a81a 9d3c f357 2a3e 1627 f03c
00000140: 343d 033e 1f5e 0dbe ae86 21be d7ec 9dbd
00000150: eaac 37bd f49b 593a c9f6 a5bc e968 a1bd
00000160: dfa6 8d3d 128e d33b f9ec 97be 05cd 9a3c
00000170: 56ce 293e 2047 52be 195c 9839 a28b 763c
00000180: b999 adbd a512 123e 2c6a 073d 2a64 e3bd
00000190: b52e 3dbe b36b 3f3e 4e5f e6bd 6b16 c03c
000001a0: c958 423e f813 44bd 226b f4bb 6662 6fbc
000001b0: a90a a2bd b3e7 a0bd 15dc 4abd c3b2 cd3d
000001c0: e177 20be 3a59 8abe d6c2 55bc c0b2 c6bd
000001d0: 504a 9cbd ebd4 54bc a84b 3abd ea45 493e
000001e0: 20da b1bd c8bf 19be 12a3 69bd 6939 b83c
000001f0: 2348 25be 1260 1bbd df55 78be ed28 a7bd
00000200: c9da 00be 303d ec3d e519 37bb ec55 59be
00000210: 059e 243d 5e8d 6f3d 5c59 e83d c5e2 63bd
00000220: 9afd f63d 2ebd 833d 02f4 cdbd 227a 2d3e
00000230: f54c 8e3d 568e 77be 6df5 a63c a504 a03d
00000240: 6c38 ff3c a15a 463d 27dd cfbb f833 89bd
00000250: 8ad4 26be 7e03 b4bd 1f4a 03be 5d32 96bd
00000260: 1687 1abe 2363 933d 601c a23c d6aa 773d
00000270: 7008 de3a 3acc 403d 1085 8d3d 6333 61bc
00000280: f5f5 31bc 9630 95bd 7a46 c53b 233b 823d
00000290: e041 12bd ed66 e3bd 7d70 993d 1954 ecbd
000002a0: 5b37 93bd 0910 f83c d851 efbc e105 ac3d
000002b0: 65db da3a f59b 183d 1f58 02bd d749 27be
000002c0: 32d8 c6bd 04d3 81bd e70b 94bc 9a51 51bd
000002d0: fa90 a93c f339 17be df71 71be acdb a93d
000002e0: 8d1f 2e3e 643e f63d 032a ba3c afbe 313c
000002f0: 2476 143d 5c4f 703d 9de9 b03d 0e79 eabd
00000300: ca67 35be db89 29bd 05ed bd3d 4773 41bc
00000310: fb59 89bd 8840 b83d 2f62 ab3d 7032 973d
00000320: 5054 5f3d 9801 923d 1faa 17be bb60 83bd
00000330: 371c e73d 97e2 c03d 4e77 fbbd f6b8 473d
00000340: 1c67 a03e f97e 943d e827 0fbe 7208 863e
00000350: 02bd 4b3e 91e7 49bd 74a0 45be 30ab fc3d
00000360: 5b39 94bb c435 29bc cb56 233e d248 b13c
00000370: ad32 3bbd 1e21 253e 3a5e ef3c 0db2 15bc
00000380: 51c8 013e 530b 703e be0f fa3d b568 cdbd
00000390: 59a2 033e fad5 013e 0f9f acbd ac17 cf3d
000003a0: fbae 25bd cfe2 f6bd af33 ed3d 750d 97bc
000003b0: 96a8 1cbd c460 683e 058d b23d 48cd 243e
000003c0: d4bf f93d 3d17 c0bc 34b2 6cbd 5a8f 843d
000003d0: 4bf5 993d 623c 0f3e e79d 20be 4897 44bc
000003e0: 2c51 9e3d 1940 a5bc 6872 143d 57f3 213e
000003f0: 031e 05bf 3174 d93d 6283 923d c36d 71be
0.057154402 -0.058937926 -0.17529485 -0.059655767 -0.05070486 -0.06654179 0.1509088 0.03158665
-0.051253513 -0.09625468 -0.16004501 0.01439977 -0.13604008 0.017416557 0.06802197 -0.05100546
0.083528325 0.03768024 0.34024578 -0.17225316 0.003192647 -0.07379279 -0.10615596 -0.02729333
-0.07782568 -0.11829645 -0.0967576 0.16175921 -0.08125325 -0.1452252 -0.0068720165 0.008615093
-0.17826176 -0.19381374 -0.10234999 -0.22119571 0.027442753 0.12621552 0.017687574 0.19335264
0.027824275 0.033752643 0.13114345 0.008604544 0.060423408 0.21211079 0.020263676 -0.16877978
0.060415883 0.076261185 0.18465185 0.04079066 0.04669988 0.2482513 0.06988736 -0.051662385
-0.01632798 0.049965862 -0.116782986 -0.03978786 0.01260542 0.12392461 0.012449926 0.05170931
0.03934061 0.017772058 0.047201987 0.009556081 0.10782125 0.08305559 0.12997542 0.020205608
0.13819593 0.09554007 -0.029096793 0.1044188 -0.049806964 0.01917775 0.16635112 0.029315513
0.12816316 -0.13805436 -0.15774032 -0.07711189 -0.044842638 0.0008301132 -0.020259278 -0.07881338
0.06916594 0.006456145 -0.29672983 0.018896589 0.16582617 -0.20534945 0.00029060317 0.0150479395
-0.08476586 0.14264925 0.033060238 -0.11103089 -0.18474849 0.18693428 -0.11248647 0.02344819
0.18979181 -0.047870606 -0.0074590603 -0.014610862 -0.079121895 -0.07856693 -0.049526293 0.10043862
-0.1567073 -0.270212 -0.013046941 -0.097020626 -0.076313615 -0.012990217 -0.045482308 0.19655576
-0.08684182 -0.15014565 -0.05704028 0.022488313 -0.16140799 -0.037933417 -0.24251507 -0.08162103
-0.1258346 0.11535108 -0.0027939018 -0.21224183 0.04018976 0.058484428 0.11345169 -0.055636186
0.120600894 0.064325675 -0.100563064 0.16941121 0.06948272 -0.2417539 0.0203807 0.07813386
0.031154834 0.048426274 -0.006343502 -0.066993654 -0.16292015 -0.087897286 -0.12821244 -0.07333825
-0.15090594 0.07196643 0.01978892 0.060465656 0.001693977 0.047069766 0.06910145 -0.013745162
-0.010861863 -0.07284658 0.0060203644 0.06358936 -0.035707355 -0.11103616 0.074921586 -0.11539478
-0.071882926 0.030281084 -0.02921383 0.08399559 0.0016697465 0.037258107 -0.03182232 -0.16336761
-0.09709205 -0.06339076 -0.018072082 -0.051103212 0.020699013 -0.147682 -0.23578595 0.08293852
0.17004223 0.12023619 0.02272511 0.010848685 0.03624548 0.058669433 0.08638308 -0.114488706
-0.17715374 -0.041391235 0.092737235 -0.011807269 -0.067066155 0.08996683 0.083683364 0.07382667
0.054523766 0.0712921 -0.1481099 -0.06414934 0.112846784 0.094182186 -0.12278615 0.048760377
0.31328666 0.072507806 -0.13980067 0.26178318 0.1989632 -0.049293105 -0.1929949 0.12337339
-0.004523439 -0.01032776 0.15951078 0.021641169 -0.045702625 0.16125914 0.029219735 -0.009136689
0.12674071 0.2344182 0.12210034 -0.10029737 0.128549 0.12679282 -0.084287755 0.10111937
-0.040450078 -0.12054979 0.115821235 -0.018439034 -0.038246714 0.22693163 0.087183036 0.16093934
0.121947914 -0.02344858 -0.057787135 0.06472655 0.07517489 0.13987878 -0.15685235 -0.011998959
0.07730326 -0.020172166 0.03624192 0.15815483 -0.5199892 0.10617865 0.071539655 -0.23577027

rdbs.0.local_res_block.0.conv.bias f4 [12]
00000000: c665 99bd f423 2cbe eca7 233b 08ee 793c
00000010: 159b 16bd 5d4b 38bf c867 cc3d 70dc 8f3d
00000020: f69d 68be 15cb 25bb 92b4 adbd 1689 f13c
-0.07490115 -0.1681059 0.0024971915 0.015254505 -0.03676899 -0.71989995 0.09980732 0.07024467
-0.22716507 -0.0025298048 -0.08481707 0.029484313

rdbs.0.local_res_block.1.conv.weight f4 [12, 24, 3, 3]
00000000: c7d9 ddbb 2013 313d 6669 f63c 1906 08be
00000010: 5861 9e3d 6044 a5bd 2c8e 86bd e7f4 86bd
00000020: 62c4 20bc bf21 93bd b828 cbbd ace7 96bc
00000030: cd47 ddbd 1c57 2abd 6802 d83c ad4a 67bd
00000040: 7f21 29bd d59f 743d 8fa1 1dbe 3e53 813c
00000050: 0d53 383e 613d 3abd ea20 8bbb ff8e 063e
00000060: a648 febb 92a2 c43d ce64 3c3c f364 863b
00000070: 4eca 743d 4958 0bbe 9888 89bd ae1c a03d
00000080: c7d3 12be 6904 64bd 48db 11be e617 51be
00000090: 41da 4b3d 1a3c 96bd fae1 c63c 3d85 593d
000000a0: 8a87 a63d 9d13 c33d 2f55 f6bc d2ac b63c
000000b0: ec31 d53d 13b3 103e b2de 54bd 07c2 88bd
000000c0: 3dc9 913e 61ce c53d a208 3b3c 13de 933d
000000d0: 3423 1b3c 78c3 983d a4d5 9f3d e361 8c3d
000000e0: 5a94 3e3e c691 933d 9845 3fbe 0db3 a13d
000000f0: 402c 8d3d 4d7e 04bd bb30 633e d88d 553d
00000100: 3df2 ab3c 1d5d 20bc 680b 08bc ff16 68bd
00000110: 9942 4cbe bd76 97bd ded9 9ebd b093 febc
00000120: 7a71 653d 2d94 9d3c de63 be3b 6754 7f3d
00000130: 6772 ad3d 6f55 d13d cbe7 49bd 4b93 4ebd
00000140: b1dd 2bbd 0e73 e73d 76d0 243d 7e82 adbc
00000150: b3fd 0b3d 1d02 f53c d0cf d53c b443 a23d
00000160: 7b37 363d 13e7 d5bb fc9b e73c a18d 833c
00000170: 1680 36be 8f52 e53d e0ba 80bd 64fc 2fbe
00000180: 3627 353e 824f 3d3d 7d46 33bd 629d cfbd
00000190: 582d 0dbe c33a 98bc 261e 1dbd 324f 41bd
000001a0: 6ee5 583d 5ff1 8dbd 47aa 34bd 71af 923d
000001b0: 2cad c7be 9c40 66bd 66a5 10be 977f 36be
000001c0: 8f3e e03c b454 cf3b 77c2 9ebe 909f 84bd
000001d0: 83a6 53be 9d48 fb3d a870 4cbd eb49 c83d
000001e0: 8e0d fe3c 5269 9a3d 79f8 9bbb 0db7 edbd
000001f0: bc52 4b3d e5d8 a33d 3d9b d7be 1eec 16be
00000200: 37d4 cebd a807 afbe c92e c3bc d4c8 2bbd
00000210: 5ed8 a9be 544e 37b9 5b69 463d 1db5 24be
00000220: babe 5bbc e5e7 803d 70ac b7bd de6d 6e3d
00000230: 5967 08bd e6c9 7dbe 1a27 0bbe f05b 59be
00000240: 239b 4c3d 9258 94bd c0a4 15be b7f2 5a3d
00000250: 5332 07bc 17d3 15be 548f e6bc 560a febc
00000260: 7c44 03be 5589 d93e 41b9 af3e 5887 d53d
00000270: ea32 8f3e 8fa1 b53e f5f2 173e 6672 c53e
00000280: 0152 653e e40a 7b3e 6bb9 fe3c d00e 3a3d
00000290: 61ac 213d 3d10 353d 6676 a73d fa65 08bd
000002a0: 212d c53d b1d7 d13c 08a2 10bc 8609 bc3d
000002b0: 6be3 f73b 3518 893d 4208 d3bc 28a1 20bc
000002c0: 530a 443d 7651 5a3d 75ae c23d a46f 093e
000002d0: 6bd6 03be 1dab 8cbd 1200 61be c355 27be
000002e0: 6de6 2a3e 5eae 96bd 51c0 c0bd f0df 86be
000002f0: a3c7 13be 10d3 67be 0dda 173d ff11 a53d
00000300: 3bf1 1ebe 8141 30bb f4a6 9c3b eb04 053e
00000310: 9e91 6abd ee19 ebbc df09 f6bd 4ec3 8bbd
00000320: 2651 3c3d c842 913c 62bf ebbd 095a c3bc
00000330: 697c 90bb bae5 adbc d852 06be 27b7 d83d
00000340: 497e 973d 7109 0c3e 79ab f2bb 372f 52bd
00000350: dfa3 29bd 241d 83bd 5fa7 b7bd 29c1 183c
00000360: bd9b 5ebd 7e7b ec3c 783c c3bd c30b 503c
00000370: 939f 943c 5d8b 6c3d 9163 b5bd 7a72 a4bd
00000380: e2d3 0f3d 2be1 ec3c 059b eabd 6445 313c
00000390: 6079 e93d b70f 17bb a9fe 8fbd 4008 183d
000003a0: f1df a7bc e29b 9abd 1a1a c93d d7f7 6a3d
000003b0: d05a 383d f0d7 a6bd bcdd a53d 2b65 ae3d
000003c0: 7ceb 303d 42a1 35bc e143 193d 94f3 9cbd
000003d0: be2d 68bd 9ecf 323d d423 c93c d4b9 8f3b
000003e0: 967c a1bd 64fb c93d f776 9a3d 380b b33c
000003f0: 339b 07be 49a6 a0bd a9eb 58be 2937 043d
-0.006770346 0.04323113 0.030079555 -0.13283576 0.077334106 -0.08069682 -0.06570086 -0.0658968
-0.009812446 -0.07184171 -0.09919876 -0.018421017 -0.108047105 -0.04158698 0.026368335 -0.0564677
-0.04129171 0.05972274 -0.15393661 0.015786763 0.18000431 -0.04546869 -0.004245867 0.13140486
-0.007760125 0.0960132 0.011498643 0.0041013896 0.059763245 -0.13607897 -0.06715506 0.0781797
-0.14338599 -0.05566827 -0.14243805 -0.20419273 0.04976869 -0.07335682 0.024277676 0.05310558
0.08131321 0.09525225 -0.030069916 0.022299204 0.104099125 0.14130811 -0.05197019 -0.06677633
0.28473845 0.09658504 0.011415632 0.07220092 0.009468842 0.07459158 0.078044206 0.06854608
0.18611279 0.072055385 -0.18678892 0.07895479 0.06893206 -0.032347012 0.22186558 0.052137226
0.020989532 -0.009787825 -0.008303501 -0.056662556 -0.1994728 -0.073956944 -0.077563986 -0.031076282
0.056016423 0.019235695 0.005810245 0.06233635 0.08469086 0.10221373 -0.04929332 -0.05043344
-0.04195947 0.11301242 0.040237866 -0.021180388 0.034177493 0.029908234 0.02610007 0.079230696
0.044486504 -0.0065277903 0.028272621 0.016058745 -0.17822298 0.111973874 -0.062856436 -0.17186123
0.17690739 0.046218403 -0.043768395 -0.1013744 -0.13786829 -0.018582707 -0.03835883 -0.047194667
0.052953176 -0.069308035 -0.0441077 0.07162369 -0.38999307 -0.05621396 -0.14125594 -0.17822109
0.02737358 0.006327236 -0.3100774 -0.06475747 -0.20668988 0.12269709 -0.049912125 0.09779724
0.031012323 0.075396195 -0.004759845 -0.1160718 0.04963945 0.08000354 -0.42110625 -0.14738509
-0.100990705 -0.3418553 -0.02382602 -0.04193957 -0.33172888 -0.0001748142 0.04844032 -0.16084714
-0.013412172 0.0629423 -0.08968437 0.058210246 -0.033301685 -0.2478405 -0.13589135 -0.21226478
0.049952637 -0.07243456 -0.14613628 0.053454127 -0.008251744 -0.14631306 -0.028144516 -0.031010788
-0.12819093 0.4248759 0.34321025 0.104262054 0.27968532 0.35474822 0.14838775 0.38563842
0.22394563 0.24515873 0.031094274 0.045424283 0.039471034 0.04420494 0.081768796 -0.033300377
0.09627748 0.025615545 -0.008827694 0.09181504 0.007564952 0.0669407 -0.025760774 -0.009804048
0.04786141 0.053300343 0.09505931 0.13421494 -0.12874763 -0.06868575 -0.21972683 -0.16341309
0.16689463 -0.07357477 -0.094116814 -0.26342726 -0.14431624 -0.22639108 0.037073184 0.08060073
-0.1552171 -0.0026894512 0.0047806446 0.12990157 -0.057267778 -0.028698888 -0.120136015 -0.06824361
0.045975827 0.01773204 -0.11511113 -0.023846643 -0.004409362 -0.021227706 -0.1311754 0.105818085
0.07397134 0.13675477 -0.007405695 -0.05131456 -0.041416045 -0.064020425 -0.089674704 0.009323397
-0.054347742 0.02886748 -0.09533018 0.012698117 0.018142497 0.057750095 -0.088568814 -0.08029647
0.035114177 0.028915962 -0.11455349 0.010819767 0.114001036 -0.0023050138 -0.070309944 0.037117243
-0.020492526 -0.075492635 0.098194316 0.057365265 0.04500848 -0.081466556 0.08098933 0.0851539
0.043193325 -0.01108581 0.03741825 -0.07663646 -0.05668425 0.04365503 0.024553217 0.004386166
-0.07885091 0.09862402 0.07542222 0.021855935 -0.13242798 -0.078442164 -0.21183647 0.032279167

rdbs.0.local_res_block.1.conv.bias f4 [12]
00000000: e2fb 543e 551f 5cbe 8492 0cbe 8ec6 db3d
00000010: d068 d2bd 0a3a 953d 4006 1bbe e4ed c53d
00000020: 3074 9ebd bec0 a2bd f293 d93c 139e 523d
0.2079921 -0.21496327 -0.13727766 0.10731231 -0.10273898 0.07286461 -0.15139103 0.09664515
-0.07737005 -0.07946919 0.026559804 0.051420283

rdbs.0.local_res_block.2.conv.weight f4 [12, 36, 3, 3]
00000000: 0e4f a1bd f8ec 173d a5b9 8ebc b3f6 5d3d
00000010: 1a4a fabc 36a6 2a3d ebe1 3dbd 4448 293d
00000020: c7e7 4f3c c27c 463d c1d7 30bd 9f63 f7bc
00000030: 2c4f 51bc 3121 b83c fcae 39bd 3604 883c
00000040: b34d 873d ce33 2c3d be49 a1bd 45c7 11be
00000050: 5b08 033d c602 07be e4e7 f8bd 3a6e 9fbe
00000060: 65c8 d6bc ea19 0bbe 9d50 6fbd 94d7 743d
00000070: 21f0 573d d19b a53b 9504 493d 716f 49bc
00000080: 9910 033d 6afa 4f3c ae03 96bc 53b7 56bd
00000090: 7420 a6bc d4df f7bc ac06 1abe 1468 ae3d
000000a0: 23d5 02bd 598e 6dbe 04e3 debd 5e37 71bd
000000b0: 816f b8bd dd9d aabd 40ef 8d3d 0dc6 89bb
000000c0: 29ea b33d 7e97 c13d c481 783d b498 eb3d
000000d0: a715 013e c5b9 00be 1336 53bd 5959 04bd
000000e0: d6d5 973b 50df 1e3d b548 7fbc 3f35 00bd
000000f0: 371b c9bd 513a debd 42b4 9e3c ac2a 1a3d
00000100: cced d4bd ac59 333b 5872 35bd 8b50 9bbd
00000110: 70fa 06be f428 edbd c0a8 44be 8389 bd3c
00000120: c2dc 2f3d 864a 24be 9adf abbd d84c 863d
00000130: 566d 99bd 9026 31bd 2eba b3bd c760 95bc
00000140: ce4d 2abd 29e5 783d 2909 e13c 97e7 8c3b
00000150: 4a74 5539 1fe3 efbc 4e3e 9fbc 8c77 bdbd
00000160: f2d5 b4bc cfab a03d 1a7d 16be b969 06be
00000170: 3d90 a5bd 734e 87bd 7135 46bd bbe2 abbd
00000180: e25e 67bd 97f1 7f3c 27ae 85bd 96f4 bd3d
00000190: 265a c73c a1bb acbc 7832 253d 654d c23a
000001a0: 428b cbbd 03ce ae3c 19a5 543e c424 d93d
000001b0: 9def 1b3e 778f 5c3e cd8e 0f3e cc7b b8bd
000001c0: ff9b afbd 8a71 f7bd d03f a1bc a26c 1fbd
000001d0: 17d5 37be d4d9 2c3d b261 9b3e a402 653c
000001e0: 4e65 87bc c057 073d 30f5 063e cbea 353e
000001f0: 5c1f c03d e143 183e e58a 8a3c 6bcc 5abc
00000200: 41fb 583d 782b 12be ef29 66bd d407 5abd
00000210: 966d 71bd 918e a83c b4c1 ab3d 430d 18bd
00000220: 412e 10bd aba0 9cbc b633 19be 8584 44be
00000230: 1f24 17bd 02e3 f0bc 0797 29bd 18ee 3c3c
00000240: 797c 39be 21dd b6bd e4b5 c5bd c7fc 7bbd
00000250: 5db1 aabd 4b77 dcbc 8d66 eebd 1c5c 08be
00000260: a210 cbbd c803 32bf 5117 52be 8aba ea3d
00000270: dc0d 6fbe e66e a5be b781 edbe 4c87 f7bd
00000280: 2f2b eabe 72f8 dcbe 5aa7 7fbc bad1 5bbd
00000290: 27b4 e7bc 2c00 c7bd c738 abbc cb25 c33d
000002a0: 2ce4 5abd c4fd 403e 754a 393e 2e40 0f3d
000002b0: c3cf 85bb 5663 ecba 113e 3ebc 8c9a 243d
000002c0: e8d5 8c3d 4a93 15be e5e2 9cbd 1290 6ebd
000002d0: 9d53 8b3d 19aa efbc 5861 db3d 6697 0c3e
000002e0: 6693 fcbd 4475 543d 7b45 6a3e 1035 943e
000002f0: c160 013e f6dd 6abc 6995 2d3d 6a41 c9bd
00000300: 660d 1c3e 3429 513e c2bf 813c 17bb bd3e
00000310: 19ab e43e 03ce 413e e65e 74bd d647 a73d
00000320: 2370 2d3e 66c2 86bd c246 8bbd 76f7 8dbd
00000330: c670 16bd cc07 b23c 3b56 39bc a031 37bd
00000340: 6870 04bc e708 0fbc 617b e03d a665 203c
00000350: 3051 413e e877 633e b4fe f43d 1a0f b03d
00000360: 34a5 85be cd31 dbbd 7203 67be ec24 32bd
00000370: 0f8b 0b3e 7737 cd3c af1a e9bd 0002 1e3d
00000380: 456b 05be 0cc1 5fbe 45b8 2b3e 42d2 83bd
00000390: 9d1a de3c 2388 1f3e d4b6 1ebd b13a b23e
000003a0: e269 213d f003 e5bd 4ae2 7e3d 7d56 1b3d
000003b0: ea03 0d3e 933f 8bbd 5f18 653d 7c99 a13d
000003c0: e1b7 ea3d 25fd 863d ce4e 473e 8c78 1bbd
000003d0: a260 313c 9650 303d db23 6cbd 93e1 20bd
000003e0: 3df4 2c3d 17a4 23bb 6206 983d 117a 133e
000003f0: 8610 1ebd c22a 85bc 8606 613c c82b 67bd
-0.078764066 0.037091225 -0.017422507 0.05419035 -0.030552913 0.041662417 -0.04635803 0.041328683
0.012689537 0.048458822 -0.04317451 -0.03019887 -0.012775224 0.022476764 -0.045332894 0.01660357
0.06606617 0.042041592 -0.07875393 -0.14236172 0.03199039 -0.13184652 -0.121536046 -0.31138784
-0.026218602 -0.13584104 -0.05842649 0.059775904 0.05271924 0.005053975 0.049076635 -0.012294636
0.03199825 0.012693981 -0.018312301 -0.052420925 -0.020279147 -0.030258097 -0.15041608 0.08515945
-0.031941544 -0.23198833 -0.108831435 -0.058890693 -0.09005643 -0.08330891 0.06930399 -0.0042045177
0.08784897 0.09452723 0.06067063 0.11503735 0.12605916 -0.12570865 -0.05156524 -0.03231177
0.0046336455 0.038787186 -0.0155813 -0.03130078 -0.09819644 -0.10850967 0.019373063 0.03763835
-0.10396919 0.002736668 -0.0442985 -0.07583722 -0.13181472 -0.11580077 -0.19204998 0.02313686
0.04293514 -0.16044053 -0.08392258 0.065576255 -0.07491557 -0.043249667 -0.08775745 -0.018234624
-0.041578107 0.06076542 0.027470188 0.0043000686 0.00020356584 -0.029283104 -0.019438889 -0.092513174
-0.022074673 0.0784527 -0.1469616 -0.13126267 -0.08084152 -0.0660676 -0.04839081 -0.08392855
-0.05648697 0.015621564 -0.065273575 0.09275167 0.024334978 -0.021085562 0.040331334 0.0014824091
-0.09938671 0.021338468 0.20766105 0.106027156 0.15228124 0.21539102 0.14019318 -0.090079874
-0.08574676 -0.12082203 -0.019683748 -0.03892196 -0.17952381 0.042199925 0.30347973 0.01397768
-0.016527798 0.03304267 0.13179469 0.17765348 0.09380981 0.14869644 0.016911933 -0.013354401
0.05297399 -0.14274395 -0.056192335 -0.05323012 -0.0589424 0.020575793 0.08386555 -0.037122022
-0.03520036 -0.019119581 -0.14961132 -0.19191177 -0.036899682 -0.02940512 -0.041403797 0.011531375
-0.18113889 -0.08928896 -0.096538335 -0.061520364 -0.083346106 -0.026912352 -0.11640654 -0.13316387
-0.09915282 -0.6953702 -0.20516707 0.11461361 -0.2334513 -0.3231117 -0.46388027 -0.12086353
-0.4573607 -0.431583 -0.015603865 -0.053666808 -0.028284146 -0.0971683 -0.020901097 0.09528693
-0.053440258 0.18846804 0.1809481 0.034973316 -0.004083605 -0.0018034976 -0.0116114775 0.04018645
0.06876737 -0.14606968 -0.07660464 -0.058242865 0.06803057 -0.029255914 0.10711926 0.13729629
-0.123328015 0.051869646 0.22878067 0.28946733 0.12634565 -0.014335146 0.042378817 -0.0982693
0.15239486 0.20425874 0.015838508 0.370568 0.44661787 0.18926243 -0.059660815 0.081679985
0.16937308 -0.06580047 -0.06800605 -0.06931965 -0.036728643 0.021732233 -0.011312063 -0.04472506
-0.00808344 -0.00873015 0.10961033 0.00978986 0.18878627 0.2221371 0.11962643 0.085966304
-0.26102602 -0.10702858 -0.22559908 -0.043492243 0.13627265 0.025050862 -0.113820426 0.038576126
-0.13029201 -0.21850985 0.16769512 -0.06436588 0.0271123 0.15579276 -0.038748577 0.34810403
0.03940762 -0.11182392 0.062227525 0.03792428 0.13771024 -0.06799235 0.055931445 0.07890603
0.11460853 0.06591252 0.19463655 -0.03795676 0.010826262 0.043045603 -0.057651382 -0.039277624
0.04222511 -0.0024969631 0.074230924 0.14402033 -0.038589977 -0.01625574 0.013734465 -0.056438237

rdbs.0.local_res_block.2.conv.bias f4 [12]
00000000: 73fe a5bd b30a abbd 53df 88bd 8c40 bebd
00000010: 98d9 e1bb fcbe a0bd 56cd 483d 2f70 bcbd
00000020: 02c2 983d 9d9e df3d dd1c 203d 0351 6a3d
-0.08105173 -0.0835165 -0.06683221 -0.09289655 -0.0068923943 -0.078489274 0.04902395 -0.09201085
0.07458879 0.10918925 0.039090026 0.057206165

rdbs.0.local_res_block.3.conv.weight f4 [12, 48, 3, 3]
00000000: 1b58 1bbd bd02 e9bb efaf f1bc 7846 e1bc
00000010: fb5b 043d e72f e7bc cc1f 1abd 81b1 a6bc
00000020: f101 47bc 8315 153d 9265 f3bb 58ee 3e3b
00000030: 80e8 fbbc 0def 2abc 5aaa 4ab8 390e 073c
00000040: a00b a0bc 27a6 9fbb 1d8b 883c 52e1 233c
00000050: 3db3 dabc f1e5 303d f8b8 e53c c50c 1f3c
00000060: 1b8c ccbc 694c 00bd 7178 88bc ccb9 aebc
00000070: 212e 363c 5b99 debc 54cb c23a 8d59 403c
00000080: 8aa5 af3b 79a9 283b 0f6f 8fbb bd9b d73c
00000090: b489 843c 6290 143d e235 02bd 8f07 5abd
000000a0: ae93 bebc 6963 c6bc 1905 99bc 72de 6d3a
000000b0: d92a 16bc 282f 23bd 47ca 24b8 0fef 53bd
000000c0: 072f ffbc d403 66bc 5d01 2bbd ff2c 3dbc
000000d0: 5fde 9cbc 9bbb 133d 3f87 443d 24fb 26bd
000000e0: 544d d53c 51b5 f83c 309e d4bc 3a79 753c
000000f0: ecca e8bc d33f 003d 2e9e 14bd 8034 23bc
00000100: c02b 72bc 591f 993c 326d 66bb 718b 3bbc
00000110: 3304 c7ba 51c1 7abc c065 53bd a472 06bd
00000120: 8048 dc3c 3285 2d3c e03e 9db9 9f46 15bd
00000130: e9c8 033b b0fd 403c 3076 dc3c 6d63 4fbd
00000140: fb96 2c3d a670 793c cc91 e5bc b6fc a9bc
00000150: 2ab5 b03c d4bc 0cbd d122 14bd 55d8 a33c
00000160: 5741 a93c 1098 38bd aa23 473d 4ccf 3e3c
00000170: 644e 53bd 8619 18ba 8c65 3c3d 57f2 f73c
00000180: 7a95 1d3d ce48 46bc fe37 063d 42f3 8b3c
00000190: 8b60 a93c b68e 38bd 9f99 6e3c a982 5cbd
000001a0: fedc 9d3c 11e1 eebc 1cdc b83c b733 14bd
000001b0: 41ac 9cbc dfce 3abc c6e0 babc 0f26 b5bc
000001c0: d399 ad3c 9f05 be3b 1ea1 d53c 2f2b 06ba
000001d0: 7fd8 65bb b65a 4fbc 12d0 bfbc 01db 9e3b
000001e0: adc2 e0ba f46d 9ebc 3649 b7bb a052 0ebd
000001f0: 2733 9dbc e621 9f3b a343 18bd 32f6 47bd
00000200: ab00 26bc 7a43 4bbd 51d8 b53c 17d9 dd3c
00000210: fa9d 1d3d 30fb 0f3d 14bf b1bc cda5 c73c
00000220: 8ce7 c9bc 9add 7ebc 48fa 5dbc bac4 b3bb
00000230: 0531 2abd 60d1 5bbc 7965 5c3a 3ee3 53bd
00000240: 12a2 e4bc ce16 35bb 41d1 4dbc e689 69bd
00000250: 9d8c f73c c8d5 a23a 70a5 e73c 0af7 f4ba
00000260: 28b8 05bd 7a04 083d e3f3 383d 2705 8c3c
00000270: a251 ad3c 8085 1c3d fcb9 a0bc 6ba1 9fbc
00000280: 25b1 e2bc 94b6 4ebb 8c26 1abd 7e94 84bb
00000290: dce0 e33c bd15 82bc 737a b0bc e421 fd3c
000002a0: 5e49 43ba 6b75 3fbd 447a a8bc 7c5a 1dbd
000002b0: 5b32 ad3c 058e cbbc 0b27 2cbc 82a7 63bd
000002c0: 79c8 c8bc fe0d 06bd c169 3dbd 0bbd 5abd
000002d0: ceb4 193c dc77 e13b c667 fa3b a017 d7bc
000002e0: 5448 93bc f3ee 43bd 2786 fa3c 8fce 10bc
000002f0: d390 c83b ebf9 7ebd 1f27 05bd a7b8 b73c
00000300: 0484 3abd 8d05 0a3c 920e c7bc 311f 53bd
00000310: 9b49 a23b c971 8c3c b172 ffbc 13fc 8cbc
00000320: f7f5 cabb b41b 073d 8b6d 46bd cd20 60bc
00000330: 3047 babc 1c37 643c 139d 96bb f6a9 26bd
00000340: 9d5f 34bb e4a6 a8bc ef38 43bd 3687 eebc
00000350: 586c 56bd 9375 9cbc 4356 21bd 59f0 7639
00000360: 318f 4a3c 13fc 4a3c 71b0 5abc 15df a33c
00000370: 2d3b 1ebd b877 aebb 5fd5 44bd d32c bd3c
00000380: e3a9 c4bc 30d7 403d 93c2 1ebb 96f5 d9bb
00000390: 5fde 29bd eccf 3abc 1c0b 8ebc 11c3 27bd
000003a0: 1d6d 28bd 7cea 3ebd 9064 de3c a7d4 e8bc
000003b0: 8bf8 b7bb 5c5b 4abd b691 aa3b 042e 56bd
000003c0: d2ba 4bbd c4f7 d3bc 20ad 833c ac69 0fbb
000003d0: 035f e9bb 959e 20bd 7388 8fbc b62a 26bd
000003e0: e4b1 89bc 3cc4 953c d9d0 9e3c 136f fc3c
000003f0: 5868 fa3c 8a87 aebc f29b 11bd af4e 01bd
-0.03792582 -0.007110922 -0.029502837 -0.027499422 0.032314282 -0.028221084 -0.03762798 -0.020348312
-0.012146459 0.03639747 -0.0074278796 0.0029133763 -0.030750513 -0.010432971 -4.8319205e-05 0.008243137
-0.019536793 -0.004872102 0.016667897 0.010002451 -0.026696796 0.04318804 0.028042302 0.009707634
-0.024969151 -0.03132287 -0.016658993 -0.02132883 0.011119396 -0.027172735 0.0014861622 0.011740101
0.00536031 0.002573578 -0.004377253 0.026319379 0.016178943 0.036270507 -0.031789668 -0.053229865
-0.023263779 -0.024217324 -0.018679189 0.00090739795 -0.009165489 -0.039839894 -3.9289032e-05 -0.051741656
-0.031150354 -0.014038999 -0.041749347 -0.011546372 -0.019149004 0.036067586 0.047980543 -0.04076685
0.02603785 0.030359896 -0.025954336 0.014982516 -0.028417073 0.031310868 -0.036283664 -0.009961247
-0.014780939 0.018691706 -0.00351603 -0.01144682 -0.0015183747 -0.015304879 -0.05161071 -0.032824174
0.02689004 0.010590838 -0.0002999222 -0.036444303 0.0020108765 0.011779234 0.026911825 -0.05063193
0.042136174 0.015224611 -0.028023623 -0.020750385 0.02157076 -0.034359768 -0.036166016 0.020000616
0.02066104 -0.045066893 0.048617996 0.011646103 -0.05158843 -0.0005802143 0.04599528 0.030266924
0.03847263 -0.012102319 0.032768242 0.017083768 0.020675918 -0.045057975 0.014562993 -0.053835545
0.019270416 -0.029160054 0.022565894 -0.03618213 -0.019125106 -0.011401861 -0.022812258 -0.022112874
0.021191513 0.00579901 0.026077803 -0.0005118129 -0.0035071669 -0.0126559045 -0.023414645 0.0048478846
-0.0017147862 -0.01933954 -0.005593444 -0.034746766 -0.01918943 0.004856336 -0.03717388 -0.048818775
-0.010131995 -0.049624898 0.022197874 0.027081056 0.038480736 0.03515166 -0.021697558 0.024371052
-0.024646543 -0.015555764 -0.013548441 -0.005486098 -0.041550655 -0.013416618 0.00084074546 -0.051730387
-0.027909312 -0.0027632 -0.012562097 -0.057016276 0.030218417 0.0012423331 0.028277129 -0.0018689346
-0.03264633 0.033207394 0.045154463 0.0170923 0.02115709 0.038213253 -0.019619934 -0.01948615
-0.02767236 -0.003154193 -0.037634417 -0.004046022 0.027817182 -0.015879506 -0.021542763 0.03089995
-0.0007449592 -0.046742838 -0.020566113 -0.03841637 0.021142175 -0.024847994 -0.010507355 -0.05557967
-0.024509655 -0.032728188 -0.046243433 -0.05340294 0.009381486 0.0068807434 0.0076417653 -0.026256382
-0.017978825 -0.0478353 0.030581547 -0.00883831 0.00612078 -0.06225006 -0.032508012 0.022426916
-0.045536056 0.008424175 -0.02429894 -0.05154342 0.004952622 0.0171441 -0.031182619 -0.017210042
-0.006193872 0.032985404 -0.048444312 -0.013679695 -0.022739023 0.013929155 -0.0045963614 -0.04068943
-0.002752281 -0.020587392 -0.047661718 -0.029117208 -0.05234942 -0.019099033 -0.039388906 0.00023549925
0.012363241 0.012389201 -0.013347731 0.020003835 -0.038630653 -0.00532433 -0.04805505 0.023092663
-0.02400679 0.04708022 -0.0024224862 -0.0066515906 -0.041471835 -0.0114021115 -0.017339282 -0.040957514
-0.041119684 -0.04661034 0.027147561 -0.028421713 -0.0056143454 -0.049403533 0.0052053584 -0.052289978
-0.049738713 -0.02587498 0.016073763 -0.0021883054 -0.007121922 -0.039213736 -0.017521119 -0.040568076
-0.016808458 0.018282048 0.019386696 0.030814683 0.030567333 -0.021304864 -0.03554911 -0.03156918

rdbs.0.local_res_block.3.conv.bias f4 [12]
00000000: f6c2 66bd 077a 50bd 289c 1b3d 527c a8bd
00000010: addf 21bc 2ce8 033e 8763 643d 9a41 60bd
00000020: 11fd 9c3d 5941 b53b 5c60 8b3d f7b1 3b3d
-0.056338273 -0.050897624 0.03799072 -0.08226837 -0.009879989 0.12881535 0.05575898 -0.054750063
0.07665456 0.0055314717 0.068054885 0.045824017

rdbs.0.last_conv.weight f4 [12, 60, 1, 1]
00000000: c902 65be d5f1 a8bd 2ec1 a0bc 4184 683d
00000010: 7733 14be 1b27 803d 8879 e03b 9670 26bc
00000020: 8095 143d 172d 163e 1a88 1cbd 6580 133e
00000030: dbb2 043e 9bcc d53d 58be 0e3d 8979 fd3d
00000040: 8b9b 06be c676 563f 6f35 98bd af6a 66bd
00000050: f86a b1bd e047 ca3d ffe8 f83d c6c0 24bd
00000060: e0ca 093e 6623 ebbd b828 28bd 88f6 1ebe
00000070: 3c77 4bbd ab26 71bd b06e b8bd 0bb1 06bd
00000080: 6f97 c7bd d883 aabd a7c0 5a3d 0048 0abe
00000090: fb5f 62be 695e a0bd 50da ef3d 2d63 60bc
000000a0: a9a4 29bd 5ddd 853d 39f6 f13d 905d 78bd
000000b0: 48b4 f93c d817 7a3d c50f 62be 27d1 0a3d
000000c0: 69f9 f43d 5eab 81bc b14b 793e 8bc5 a3bd
000000d0: 3eec c03d a669 8abd 249e 33be 1cb9 c2bd
000000e0: 5173 783e 7fc1 9b3d 3d00 c1bd 5746 553d
000000f0: bf6b 7f3d ac62 fa3d 119f 713e 24ae 10be
00000100: 9cb9 943c d139 e3bd b706 82bd 1bda db3d
00000110: f15f 2fbd b3e0 a6bd af41 cc3d da39 abbd
00000120: 7d6a 70bc a533 493d c326 65bd 2895 1c3d
00000130: ccc0 e83d 3525 b03f bd3b 9bbc 3df0 4bbd
00000140: 7849 ec3d 432d 12bc 3ea2 33bd 8640 743c
00000150: d2a1 04bc 1021 acbd 2e51 3f3e ce2f 023d
00000160: 8345 bbbc 347b 3cbd 979c b03b cbc4 4cbd
00000170: fc99 773d 6dd0 43bc eae1 00bd 042e 21bd
00000180: 62b5 3dbc d735 3b3d 5f20 56bd 1a3b 59bd
00000190: dc0a dfbc 8384 1cbd 772d 25bc 742e f3bc
000001a0: 7660 62bc 42b8 fbbc ff4d 223e 7244 cb3c
000001b0: 3a3f 023e 7de5 373c 3455 d03d 8aa8 26bd
000001c0: 20ce 053e 66c5 97be 1191 72bd 608b 143d
000001d0: ff00 aebc 937d 843d 5760 dcbd 541a 083d
000001e0: d4ef dabb 2273 b1bd 78bd 77be fbb8 2a3d
000001f0: 706e ff3c c070 e9bd 5e3b 80bd b1d4 c53c
00000200: 5116 b63d ddac 9c3d 7e8d a43d 5c60 b1bd
00000210: 4be8 96bd 7e87 1abe ec7a e33c 2b5c 0fbe
00000220: 0165 4a3d 5135 65bf d959 eabb 870b 31bc
00000230: f901 8abd cf86 9ebd 401f 00be 189d 193d
00000240: 657e d9bd 8c87 b6bc 44ac 983d 54de ee3c
00000250: 0b8f b3bd 7def 083d bf6c ecbd 9caf 19bd
00000260: ae2e 823c 8e51 f8bd 116b 52bd f15c 0e3e
00000270: 27e2 e23d f216 0bbe 8198 2bbc 692e 8f3d
00000280: 4827 b2bd 6104 bb3d 56fd a7bc 462f b03d
00000290: 0f99 c5bd 04a9 5a3d fa20 6dbc 41b2 bb3d
000002a0: 8e16 ab3c aa79 633d c86c 4e3d 2dfb 773d
000002b0: 5f30 d7be 89f6 50be f35e 403d a7bf 00be
000002c0: 9f0c c03d 583c ebbd cecd cfbd 55df 253e
000002d0: aec0 6d3d 9b7e ce3c aeac 793d f9eb e9bc
000002e0: 1a35 e7bb f0ba 44be 2b9b a6bc 05a7 343d
000002f0: 19b1 e6bd bbdd 1cbe ce0f 3ebd b2b0 99bd
00000300: 6116 523c cea0 1d3e c8a1 75bc b9b4 e93d
00000310: 7342 ddbd 4824 c5bf d0f2 42bd 4dd4 38be
00000320: 3f46 cf3c bf68 563d e9bd 6bbd a6a8 ccbd
00000330: da20 49bd a8d3 873d 43b0 87bd b5e2 de3c
00000340: c061 f5bc d0bb 46bc 98a5 cbbd f1de aebc
00000350: 310a 9abc cb82 e7bc acf0 013e 312d 7dbd
00000360: 8ca2 c8bd 8781 3d3d 4948 e1bd 8311 03be
00000370: c03b c33b e59b 083c 7352 a83d 5ee6 c23d
00000380: 1aaa 0a3e b6a5 09be b09a 443e 30fc 3abd
00000390: 521e 61bd 98c4 243d 60e2 9bbe 51bc 933d
000003a0: 6e25 743e 3e37 50be d095 df3c f28f 19bd
000003b0: 54ef f1bd 574c 85bd 91a9 dd3d 74cc 5abe
000003c0: 526c 93bd f0f9 b2bd 0949 a8bd 1871 733d
000003d0: ad4f 24be b851 51bc f339 abbb 0289 613d
000003e0: 7e47 a1bc 990e 96bc 49e8 acbd 0aaa 903d
000003f0: 1dcb 23bd 7798 a0bd 7553 f2bd 14b8 2a3e
-0.22364344 -0.08249251 -0.019623365 0.056766752 -0.14472757 0.06257459 0.006850425 -0.0101586785
0.036275387 0.14665638 -0.038215734 0.14404447 0.12958853 0.10439416 0.034849495 0.123766966
-0.13145272 0.83774984 -0.07432067 -0.056254085 -0.08662981 0.0987699 0.121538155 -0.040222906
0.13456297 -0.11481361 -0.041054457 -0.15523732 -0.049674258 -0.058874767 -0.09005487 -0.032883685
-0.097456805 -0.083259284 0.053406384 -0.13504028 -0.22106926 -0.07830507 0.11711562 -0.01369552
-0.041416798 0.06536362 0.11814541 -0.060636103 0.030481473 0.061057895 -0.22076328 0.03389087
0.11961634 -0.015828785 0.2434528 -0.07996663 0.094200596 -0.06758432 -0.17540795 -0.09507963
0.2426274 0.07605266 -0.094238736 0.052069034 0.062358614 0.122258514 0.23595835 -0.1412893
0.018154912 -0.11095012 -0.06348937 0.1073496 -0.042816106 -0.08148327 0.09973466 -0.08360644
-0.014673826 0.049121518 -0.05594517 0.038228184 0.11364898 1.3761355 -0.018949384 -0.049789656
0.115374506 -0.008921924 -0.043855898 0.014907962 -0.008095222 -0.08404744 0.18683311 0.03178387
-0.022860294 -0.046015933 0.0053897607 -0.049992364 0.060449585 -0.011951548 -0.03146545 -0.039350525
-0.01157889 0.045705643 -0.052276965 -0.05303488 -0.027226858 -0.03821231 -0.01008164 -0.029685237
-0.013816943 -0.03072751 0.15850066 0.02481291 0.12719432 0.011224148 0.10172501 -0.040688075
0.13066912 -0.2964279 -0.059220377 0.03626573 -0.02124071 0.06469264 -0.10760563 0.033228233
-0.006681422 -0.08664538 -0.2419337 0.041680317 0.03118059 -0.113984585 -0.062613234 0.02414927
0.08890975 0.076501586 0.080348 -0.08660957 -0.07368525 -0.15090749 0.027768575 -0.14000003
0.04941273 -0.8953448 -0.007151824 -0.010805971 -0.067386575 -0.077405564 -0.12511921 0.037503332
-0.10619811 -0.02228143 0.07454732 0.029158749 -0.08767518 0.03343152 -0.11544179 -0.03752099
0.0158914 -0.1212493 -0.051371638 0.13902642 0.110782914 -0.13582972 -0.0104733715 0.06991274
-0.086988986 0.091316946 -0.020506542 0.08602767 -0.09648334 0.053383842 -0.014473194 0.091648586
0.020884778 0.05553595 0.05039671 0.060542274 -0.42029092 -0.20406546 0.04696555 -0.1257311
0.09377407 -0.11486119 -0.10146676 0.16198476 0.05804508 0.025206855 0.060955696 -0.028554903
-0.0070558907 -0.19211936 -0.020337662 0.044104595 -0.112642474 -0.15318958 -0.04640179 -0.07504405
0.012822718 0.15393373 -0.014992185 0.11411423 -0.1080369 -1.5401697 -0.047594845 -0.18049736
0.02530205 0.052345987 -0.05755416 -0.09993105 -0.049103595 0.06632167 -0.06625416 0.027207712
-0.029953837 -0.012129739 -0.09943694 -0.021346541 -0.018803688 -0.02826061 0.12689465 -0.061810676
-0.09796628 0.046266105 -0.110001154 -0.12799649 0.0059580505 0.008337949 0.08218851 0.09516595
0.13541451 -0.1344212 0.19199634 -0.04565066 -0.054960556 0.04022655 -0.30446148 0.07213653
0.23842403 -0.20333573 0.027293116 -0.037490793 -0.11813226 -0.06508701 0.10823358 -0.21367055
-0.07198395 -0.08739078 -0.08217055 0.059434026 -0.16046019 -0.012775831 -0.005225414 0.0550623
-0.01968741 -0.018317508 -0.084427424 0.070636824 -0.039988626 -0.0784158 -0.118323244 0.16671783

rdbs.0.last_conv.bias f4 [12]
00000000: 7cbc b7bc 4a5b fbbc fbba 9e3d 19cc 873d
00000010: 1935 9f3d c963 b3bd d579 11bd 503f d23b
00000020: 6631 753c fa62 91bd 8b70 23bd dbb3 60bd
-0.022428744 -0.030683178 0.077505074 0.066307254 0.077737994 -0.08759267 -0.03551658 0.006416239
0.014965391 -0.070989564 -0.03990225 -0.054859024

rdbs.1.local_res_block.0.conv.weight f4 [12, 12, 3, 3]
00000000: 1fda 753e b1a9 823e b615 b5bd a82a 8f3d
00000010: ae22 5b3d 7063 27be b41b 823c adfb 9cbc
00000020: 0cba 2bbe 077a fd3c 2e44 afbd 71db 9b3d
00000030: fb9c 7b3c 61b2 91bd 0743 2f3d f46c 42ba
00000040: 75a9 b8bc 6d93 223d e2a9 63bb 9b03 2d3e
00000050: a5cb 6d3e 6f9d 79be 77a7 703d da9a 073e
00000060: 609d e6bd fa65 3a3d 3a87 f33d 2cc4 e33c
00000070: b693 943d e67d 87bd 267e 3a3d d850 593d
00000080: efa3 7abd 084d 93bd e14c 8c3d 5391 2abd
00000090: ac3c df3e 5c6c 853c 7ab0 863d 7cb9 023e
000000a0: 84ad 31be 2a05 f33d 48b5 cb3d 6473 5fbe
000000b0: e318 18be e38a 0fbd c02a 05be 49d1 353c
000000c0: bb8d 633d cf2a 99bb 2f70 e6bd 8a0b 07be
000000d0: 1220 1abd 4f93 14be 72dd a53d 74a9 073e
000000e0: 5d07 cf3d a950 10be 3429 b3bd 2942 05be
000000f0: 324a 18be 80fd 0dbe e3f6 f63c b3ce 79bd
00000100: 9864 bb3d 9068 383d f8e4 d93d 7701 19bc
00000110: 6540 5b3e 4b0a a53d b3af 263d e6dc 033e
00000120: 08f4 113e 970c c63d 0536 10be eff8 473e
00000130: 0a9b 14bc 3958 cdbd b5bf ee3d 8944 e63b
00000140: c754 f93c 2f41 2bbe fd81 33bc 36ff a6bd
00000150: 9f74 08be 02b6 eebd d17a e1bd c95b a0bd
00000160: d006 58bc b789 42bb c3bd 58be 5aa5 d8bc
00000170: cbb2 da3b 48c6 b0bd b946 2dbc fa75 9bbd
00000180: 5cc5 1abe 9022 44be 254c dfbd a866 5a3d
00000190: 2624 1abe f558 b63d f427 c73d e5da 10bc
000001a0: 0660 033e 4017 023e ed0d 873d b04f 703c
000001b0: a9b4 b1bd 5d7e cebc cc13 213d 9925 1a3e
000001c0: 1987 563d eb3a 02be cfcd bcbb 84f1 04bd
000001d0: 6b48 8cbd 3819 2abc 2d98 80bd d50a c63b
000001e0: d7e2 afbd 8af6 c2bd cd59 ebbd d914 79bd
000001f0: 8397 8c3c 1462 f2bd e9b2 873c c42a c9bc
00000200: f815 b3bc 5816 8dbd 2ab3 95bd c7b3 4b3d
00000210: aa59 97bd 4c9a 7abd 38ea d2bd c13f cc3b
00000220: 904c cfbc 01e9 a2bc a425 bdbd cc09 8abd
00000230: 3bc3 25bd fe01 36bd 8463 a9bd fb94 12be
00000240: deb0 27bd 7bd5 cebd f59d d23c dfc1 c8bd
00000250: 1cef e9bd 8104 ba3d f79b eabc 3853 09bd
00000260: 8ee8 423d 5226 803d f52c 86bd a3e6 3ebd
00000270: 0f64 cfbc 4695 3abd 1fac a13d 807a 863c
00000280: 326c 0c3c 538a c4bd f60b 57bd 9ec0 533c
00000290: 54cd 06bd b158 1cbc f643 f8bc 0b93 71bd
000002a0: d37a 503d 9b9a 443d 2949 3abc c35a 703c
000002b0: 49f3 e93b 706d 5ebd 2603 543d ca91 b2bb
000002c0: 6f53 efbc 620d 9fbd 5160 b23d faaa 68bc
000002d0: 4442 23be 404a c8bd fad5 b6bc c950 8dbd
000002e0: 38a1 95bd 456c 08be 29b3 e13a 7479 d4bd
000002f0: e449 533d 78d4 b53d a4cb 0fbd 7053 f73b
00000300: 0fb4 d03b 8b01 4bbd df7b 81bd e1c3 1bbd
00000310: 017a 9c3d e1de 083d 5c7a 513d f477 6e3d
00000320: 7224 1abd 46b9 103d ea60 76bc d3c6 bb3d
00000330: c24d dcbd 4fc5 763d 3c37 2a3d 46ed 15bc
00000340: b1f3 913c 3552 4f3d 65b0 cabc 23f9 3bbd
00000350: 6ad9 743d 3cb1 1c3b 63dd 993d bb12 613d
00000360: 2916 b03d 03bc 0d3e d376 e83e 17d4 0fbe
00000370: c1ac 14be e794 5bbd d287 a93d 8389 983d
00000380: 44e0 533e 22ea e03c 54ca c2be 29a9 c03b
00000390: 9ae1 983c 92dc 9ebc 58ad b4bd 5e8b cd3c
000003a0: 27f1 393c 2382 533e d76a 98bd 25e6 07bd
000003b0: 0374 1bbf 991e 18bd c05c 343e 0bc7 69bd
000003c0: 12b0 e9bd dfcc 183e ff8f 7b3e f5ef 77be
000003d0: e506 e23e 63c0 d23e 0924 debd 8b3e f73d
000003e0: 53e9 e6be e52a acbd 8886 95bc e104 bcbd
000003f0: c252 fdbd cff6 dc3e 3ad4 aabe bab1 7c3d
0.24008988 0.2552009 -0.08842032 0.06990558 0.05349987 -0.16346526 0.01588235 -0.019162977
-0.1677019 0.030941976 -0.08557926 0.076102145 0.015357251 -0.07114101 0.04278853 -0.0007416748
-0.02254174 0.039691377 -0.003473871 0.16895907 0.23222215 -0.24376462 0.058753457 0.13242665
-0.11260486 0.04550741 0.11891027 0.027803503 0.07254736 -0.0661581 0.04553046 0.053055614
-0.061191496 -0.07192427 0.06850601 -0.0416425 0.43600976 0.016287021 0.06576629 0.12766069
-0.17351347 0.11866219 0.09946686 -0.21821362 -0.14853244 -0.035044562 -0.13004589 0.011097261
0.055555087 -0.0046742926 -0.11251866 -0.13187996 -0.03762824 -0.14509319 0.08098878 0.13248235
0.10108826 -0.1409327 -0.08748093 -0.1301352 -0.14872053 -0.13866234 0.030147022 -0.06098814
0.09150046 0.045021594 0.106393754 -0.009338728 0.21411283 0.08058604 0.040694904 0.12877235
0.14253247 0.0967037 -0.14083107 0.19528554 -0.009070167 -0.10026593 0.11657659 0.007027213
0.030435933 -0.16724084 -0.010956285 -0.081541464 -0.13325737 -0.11655809 -0.110097535 -0.07830007
-0.013185218 -0.0029684135 -0.21166138 -0.026446033 0.006674146 -0.08631569 -0.010575944 -0.075908616
-0.15114349 -0.1915381 -0.10903195 0.053320557 -0.15052852 0.08903686 0.09724417 -0.008841251
0.12829599 0.12704182 0.06594453 0.0146674365 -0.08677036 -0.02520674 0.03932552 0.15053405
0.052374933 -0.12717788 -0.005761839 -0.03245689 -0.0684975 -0.010381989 -0.06279025 0.0060437717
-0.08588188 -0.0951968 -0.114917375 -0.060810897 0.01716209 -0.11835113 0.016564803 -0.024556525
-0.021861061 -0.06889027 -0.073095635 0.049731996 -0.07390149 -0.061182305 -0.1029858 0.006233186
-0.025305063 -0.019886496 -0.09235695 -0.0674015 -0.04046939 -0.044435494 -0.08270934 -0.14314644
-0.040940158 -0.10099312 0.025710085 -0.09802603 -0.114225596 0.0908289 -0.028638823 -0.03352663
0.047585063 0.06257309 -0.065515436 -0.04660667 -0.025316266 -0.045552514 0.078941576 0.016415834
0.008570718 -0.09596696 -0.05250164 0.0129243415 -0.03291066 -0.00954263 -0.030305844 -0.05897812
0.050898384 0.047999006 -0.011369982 0.014670077 0.0071395976 -0.054303586 0.051760815 -0.0054495083
-0.029214589 -0.077662244 0.08709777 -0.01420092 -0.15943247 -0.09779787 -0.022318829 -0.06900174
-0.07306141 -0.13322552 0.0017219532 -0.10374728 0.05158414 0.08878416 -0.035106316 0.0075477883
0.006369121 -0.04956202 -0.06322455 -0.0380286 0.07640458 0.03341568 0.05114208 0.058219865
-0.037632413 0.03533294 -0.015037755 0.09168782 -0.107570186 0.060246762 0.04155658 -0.009150809
0.017816396 0.050615508 -0.024742315 -0.045891892 0.059777655 0.002390935 0.07512929 0.054949503
0.08597977 0.13841252 0.45403156 -0.1404575 -0.14519025 -0.0536088 0.08277859 0.07448103
0.2069102 0.027455393 -0.3804499 0.0058795405 0.018662263 -0.019392285 -0.08822125 0.02509087
0.011348999 0.20655112 -0.07442253 -0.033178467 -0.60723895 -0.037138555 0.17613506 -0.057074588
-0.11410536 0.14921902 0.24566649 -0.2421263 0.44145885 0.41162404 -0.10846717 0.12072476
-0.45099887 -0.08406619 -0.018252626 -0.09180618 -0.123693004 0.4315705 -0.3336504 0.06169293

rdbs.1.local_res_block.0.conv.bias f4 [12]
00000000: 351c 6e3d 9735 65be ac58 c2bd a75c f93c
00000010: 9b6c 0a3d ddef 113d 7bcc b23d 05fc 1dbe
00000020: fcc5 02be 4740 9f3c 4561 f13d 685d c53d
0.05813237 -0.22383724 -0.09489569 0.030439688 0.03379498 0.035629142 0.08730408 -0.15428169
-0.12770838 0.01943983 0.11786131 0.096369565
