training/denoiser/ppmpi_lr_0.001_wd_0_bs_64_mxNs_0.1_fixNs_1_data_mnNs_0_nF12_nB4_lieb4_gr12_rMn1.0_0.0/epoch150END.pth (torch, 251087 bytes, 49 tensors)

conv0.weight f4 [12, 1, 3, 3]
000000 06 59 24 be e9 d2 cf be 5d 20 02 be 4e 4c 93 3e
       -0.16049585 -0.405906 -0.12707658 0.28769153
000010 34 63 77 3e 69 81 6d 3e b0 fb d7 3d 68 39 7c 3c
       0.24158937 0.23193897 0.105460525 0.015394546
000020 18 33 91 bd bd c7 2d 3e d1 ba 74 3e 40 be 2e be
       -0.070898235 0.16970725 0.2389939 -0.17064762
000030 47 c5 12 3d 24 f9 0c bf be 8c e1 3d 7f 66 4d bd
       0.03583267 -0.5506766 0.110131726 -0.050146576
000040 84 ca 22 be 4c 60 82 be 3c da 9c 3c 68 fa 2b 3d
       -0.15897566 -0.25464094 0.019147031 0.041986853
000050 ec 69 90 3e 97 e0 ec 3d 05 bc c2 3e 5a ba ef bc
       0.28205812 0.115662746 0.38034073 -0.029263664
000060 08 d3 5b 3e cc 35 4f 3d e5 14 3d be 9a 53 de 3d
       0.21467221 0.050588414 -0.18465002 0.108557895
000070 41 e6 61 3e b5 aa 04 be 83 8f d9 bb 28 a1 f3 3e
       0.22060491 -0.12955745 -0.0066394224 0.4758389
000080 f9 ac d2 3e 23 26 f4 bd a4 18 bd be 00 bf 8f bd
       0.41147593 -0.119213365 -0.36932862 -0.07018852
000090 7f 80 1b 3e 47 2e fe 3d ad b2 23 be 0b 43 df 3e
       0.15185736 0.124111705 -0.15986128 0.43605837
0000a0 91 a2 25 bf 69 ec fa 3d ba 97 77 bd 99 e7 73 bc
       -0.6470118 0.12252123 -0.060447432 -0.01488676
0000b0 97 09 96 3d c6 a5 41 3e 02 6c 65 3d bd 1d 01 be
       0.07326048 0.18910894 0.056011207 -0.12609
0000c0 90 d7 64 bd ba d8 82 be b0 18 b2 3b 9b a9 38 3d
       -0.05586964 -0.25555974 0.005435072 0.045083623
0000d0 06 d2 77 3e f9 0f 8c bc 81 ab 94 be 18 06 92 3d
       0.24201211 -0.01709746 -0.29037097 0.071300685
0000e0 46 d2 3d be db 99 ea bc 67 14 c9 3e 66 ce 7f 3e
       -0.18537244 -0.028637817 0.39273378 0.24981079
0000f0 8f db 87 3b 62 48 a8 3e 0e 0a 04 be 33 b2 f3 bd
       0.0041460465 0.32867724 -0.1289446 -0.11899223
000100 90 d1 5b bd d4 f5 a7 3d 2d 0f a9 3d 84 17 7c 3e
       -0.05366665 0.08201185 0.08254848 0.24618345
000110 a5 11 8b be 18 43 f1 3c fa b4 55 3e fa 93 94 be
       -0.271619 0.029450938 0.20869818 -0.29019147
000120 bb 80 21 be fa c3 40 3e d5 63 11 be 1a fa 2a 3e
       -0.15771763 0.18824759 -0.14198239 0.16696969
000130 1a 0b c3 be 48 a3 33 3e 0f 6c 25 be 01 d0 39 3e
       -0.38094407 0.17542756 -0.16154502 0.18145753
000140 10 e7 18 3e b9 cc 71 be 60 2f 8b 3e b2 d2 87 be
       0.14931893 -0.23613252 0.27184582 -0.26527935
000150 cd 17 d2 3b 63 e7 84 be d0 42 db 3d 82 f3 d5 3d
       0.0064115287 -0.25957784 0.10706103 0.10446836
000160 c6 f1 1c 3e 84 a1 d1 3d 93 15 62 be 82 10 6d be
       0.15326604 0.10235885 -0.22078542 -0.23150828
000170 3f c6 14 3e ac 08 85 3d d3 66 41 be 3a 70 e0 3d
       0.1452875 0.06495795 -0.1888688 0.109589055
000180 52 31 65 3e 6f a6 04 be dd 95 94 3e 23 b0 aa 3d
       0.22382095 -0.12954114 0.29020587 0.08334377
000190 57 c5 4e be c3 5f f8 bd 40 77 c9 bd 00 96 b3 bd
       -0.20192467 -0.1212764 -0.09837198 -0.087688446
0001a0 ee 02 93 3e a4 ac c1 bd 8f 32 9d be f6 c4 d6 bd
       0.28713173 -0.09456757 -0.30702636 -0.10486786

conv0.bias f4 [12]
000000 b7 a8 72 bd b9 0c 01 3e 4b 66 41 be a9 3d 98 bd
       -0.05924293 0.1260251 -0.18886678 -0.07433636
000010 07 b2 7d 3c 32 c1 6c bd 8c a2 9f bd a6 ed fd 3c
       0.01548434 -0.057801433 -0.07794675 0.030997109
000020 59 8a 0b 3c fd 7a ad 3d 12 20 c6 bc 31 04 0b 3e
       0.008516871 0.08470724 -0.024185214 0.13575818

conv1.weight f4 [12, 12, 3, 3]
000000 9b 88 d7 3b 04 fc 6e 3d e0 10 16 be d3 78 3a 3d
       0.006577564 0.05834581 -0.14654875 0.045525383
000010 86 2d 06 3e ca ce 90 bd f1 41 d3 3c 53 3f 29 3e
       0.13103303 -0.07070692 0.02578828 0.16528063
000020 a2 2c 6b bc 1b 65 9a 3c 20 8d 71 3d e2 48 92 3d
       -0.014353903 0.018847039 0.058972478 0.071428075
000030 d9 b8 01 3b 20 2a 22 3d 9b ad 04 be 9d a1 93 bd
       0.0019794016 0.039590955 -0.1295685 -0.0720856
000040 9a b0 e0 3a 81 99 a2 bb a5 ab aa 3b 5f fb e5 ba
       0.0017142475 -0.0049621467 0.00520845 -0.0017546228
000050 98 d4 87 3d c5 99 78 bd fc 75 dc 3d 1d 27 f1 bb
       0.06632346 -0.06069352 0.10764691 -0.007359399
000060 f4 45 a4 bc f0 51 60 3d 22 38 d4 bd 12 a5 3a bd
       -0.020052887 0.05476564 -0.10362269 -0.04556758
000070 82 8a b2 3d 88 a5 4b 3e 00 23 62 bd 1b de 90 3d
       0.087178245 0.19887364 -0.05520916 0.07073613
000080 bd 3e 2d 3e 7b 1b 0c be c9 ad 07 be 9b ca 1e bd
       0.16918464 -0.13682358 -0.13249888 -0.03876744
000090 e2 d4 13 bb f9 b7 44 3d 1a 81 2e be 2e 15 11 3e
       -0.0022557308 0.048027012 -0.17041436 0.14168236
0000a0 af bb 13 3e 51 e7 59 be 2a fb 5b ba 3a 26 fe 3c
       0.14427064 -0.21279646 -0.00083916134 0.031024087
0000b0 02 c0 af bd b0 df 58 3d 31 19 6e 3c 08 43 fd bd
       -0.085815445 0.0529477 0.014532373 -0.12366301
0000c0 90 fc 48 3d 09 9e b1 3c 5b b4 ac bd 9d 3c 41 bd
       0.049068987 0.021681802 -0.084328376 -0.047176946
0000d0 96 06 3a 3d c8 0b 6e bb 85 fa 09 be a5 5e a9 3c
       0.045416437 -0.003632294 -0.13474472 0.020675013
0000e0 0f 2f cb 3c ed f6 b8 bd 56 b3 91 bc f6 e3 56 bc
       0.024802713 -0.09031472 -0.01778571 -0.013115874
0000f0 7d b7 1b bd 02 ee 01 3e 4a cf f1 3c 7f 36 99 3c
       -0.038016785 0.12688449 0.029517788 0.018702744
000100 fc d4 fc 3c 30 ba 5b bd b9 c3 0c 3d c9 f8 fc bc
       0.030863278 -0.05364436 0.034366343 -0.030880349
000110 f0 c7 cb bd 1f 4d c3 3d 55 7a d8 bc 9b 81 b5 3c
       -0.099502444 0.09536194 -0.02642552 0.022156527
000120 34 c6 be 3d 82 3b ec bd 9a 56 84 3b 72 5e 69 3d
       0.09315148 -0.11534788 0.004038644 0.056974836
000130 a1 06 bb bd f2 8d 3e bd 25 2a c8 bc 27 dc 64 bc
       -0.09132124 -0.04652209 -0.024434159 -0.013968504
000140 f5 77 7d bc b8 0f fe 3d 67 64 05 3d 83 ce 3b 3d
       -0.0154704945 0.12405342 0.032566454 0.04585124
000150 be a5 9a 3d 85 d8 fa bc 5e c3 6e bd b2 a3 bb 3d
       0.07551144 -0.030620823 -0.058291785 0.09162082
000160 be 34 3c bd 86 50 03 be 4e 19 ca 3d d2 40 a4 3d
       -0.045948736 -0.12823686 0.09868108 0.08020176
000170 ed 20 24 bd 6e 5e 02 3d 7f 42 a6 bb 43 f5 8b 3b
       -0.040070463 0.031828336 -0.005073845 0.004271181
000180 d1 91 d7 3d 67 e5 ff 3b f4 3b 8d bd 98 06 08 3e
       0.10525859 0.0078093293 -0.06896201 0.13283765
000190 49 d2 03 be 26 83 9e bd c0 b3 57 bd 22 a2 4a bd
       -0.12873186 -0.07739858 -0.052661657 -0.04947103
0001a0 d3 88 db 3c 52 cb 8f 3d a8 b8 14 be 5e 0e a0 3b
       0.026798641 0.07021202 -0.14523566 0.004884525
0001b0 81 4c d8 3c c5 2c 2c bd e7 dc 24 3d 94 46 48 bc
       0.026403667 -0.042034883 0.04024973 -0.012223858
0001c0 e1 45 1f be 99 1a 02 be de bd 83 bd 0a 32 d8 3d
       -0.15554 -0.12705459 -0.06432699 0.10556419
0001d0 16 c9 95 3d d1 6f b1 3b 51 d0 cc 3d 3a 01 fa 3c
       0.07313745 0.005414941 0.10000671 0.030518163
0001e0 64 39 0d 3d 6b e9 1f 3e b4 a3 ab 3c 28 3a 41 bd
       0.03447856 0.15616386 0.020952083 -0.047174603
0001f0 ec bd 3d bd d9 d6 a2 bc e2 ac b6 bd d3 29 54 bd
       -0.0463237 -0.019877838 -0.089196935 -0.0517977
000200 ff 80 49 bc 3d 9c 83 bd dd e6 11 be 58 a6 dc bd
       -0.0122988215 -0.064262845 -0.14248224 -0.10773915
000210 f5 eb 66 3d d4 5e c4 bb fa d2 23 bd 6a 60 24 be
       0.05637737 -0.0059927497 -0.039996125 -0.16052404
000220 3d f5 eb bd 14 84 84 bd dd 03 ae bd 28 64 af be
       -0.11521385 -0.064705044 -0.084968306 -0.342561
000230 0f 81 aa bd 2e 13 7d bd 35 1f 88 bd 52 3d 6e bb
       -0.08325397 -0.06178587 -0.06646577 -0.0036352468
000240 00 4e 5c ba 00 af 29 3d 9a 2e 09 bc 18 7d 67 bd
       -0.0008403957 0.04142666 -0.008372927 -0.056515783
000250 cd 07 f8 3d 4f 6d 9d bd fc 21 82 bd 6f 53 3b 3d
       0.12110863 -0.076868646 -0.06354138 0.045733865
000260 68 b8 54 3d 2d ee 22 bd 01 0b 17 bd 68 02 9c bd
       0.051933676 -0.039777923 -0.03687573 -0.076176465
000270 ef c7 4c 3d 80 ae e4 3d 1d ce e5 3c d6 c4 a9 bb
       0.04999536 0.11166096 0.028052384 -0.0051809354
000280 d1 7d 9b 3d 42 c0 65 bc 44 47 8b bd e1 6f 2b be
       0.07592357 -0.014022889 -0.06800702 -0.16741897
000290 c0 9a ae 3c b3 95 6f 3d 4a a5 93 be 9d 53 84 3d
       0.021314025 0.058492374 -0.28837043 0.064612605
0002a0 ee 39 77 bd 4f 3a 21 bd b1 e9 85 3d 54 b7 f5 bd
       -0.06035798 -0.039362248 0.06538714 -0.11997858
0002b0 ec 91 b2 3b 6d 23 73 bc d6 9a 99 3d 3c 71 e0 bd
       0.005449524 -0.014839989 0.07500236 -0.10959098
0002c0 64 89 1d 3c 36 ea 0e bd 55 9e 90 bd 4a 6a 35 3d
       0.009615276 -0.03489133 -0.070614494 0.04429082
0002d0 ef b6 00 3b 82 9f 23 3d 5c 9e 92 3d 5e 96 10 bd
       0.0019640287 0.03994704 0.07159111 -0.03529965
0002e0 7e 8a 40 3d da 9f 03 bc d5 62 6e 3d c6 a7 1c bd
       0.047007076 -0.008033717 0.058199722 -0.03824594
0002f0 cb fa 08 bb c9 c7 6e bd 7f 36 c5 bc 04 1b 08 3d
       -0.0020901437 -0.058296 -0.024073837 0.03322889
000300 94 ed 67 bd 33 49 76 bc d7 58 85 3d 58 83 d3 bd
       -0.056623057 -0.0150321005 0.065110855 -0.10327786
000310 40 c3 bc 3c 77 0f b7 3c 29 9e ed 3c 2b 92 a7 3d
       0.023042321 0.022346241 0.02900608 0.08182176
000320 7b 15 8b 3d f0 2e 01 3d 02 ed 12 3e 5f 04 b8 3c
       0.067912064 0.031538904 0.14348224 0.022463022
000330 5f 9c f4 3a 2b de bb 3d 34 e0 1a 3d 9e 5d 81 3c
       0.0018662325 0.091732346 0.037811473 0.01579171
000340 70 86 3a 3e 08 c6 04 bc 29 2e 8b bd 5f c6 26 3e
       0.18215346 -0.008103855 -0.06795914 0.1628661
000350 7b 70 be 3d 7c 15 be bc 97 d1 29 3e 6a 8e 8b bb
       0.09298798 -0.023203604 0.16583858 -0.0042589204
000360 6f 29 97 3d 0f a8 c5 bd bb 8d 6f 3d ac 3d b7 3c
       0.0738095 -0.09651195 0.058484774 0.022368275
000370 fa 9b 81 3d c7 a6 33 bc fb a9 2d bd b2 92 05 be
       0.06328578 -0.010965056 -0.042398434 -0.13044241
000380 3c 47 0f 3d 9e 3b cd bd 08 18 c8 3c 2b ca 1d 3c
       0.034980044 -0.10021137 0.024425521 0.00963072
000390 97 ea 98 3c 4d f2 05 3e 55 e7 c2 3c 61 29 d4 bc
       0.018666549 0.13080712 0.023791948 -0.025898637
0003a0 87 30 b7 3d 22 0f 99 bb e6 76 31 bc e2 bf b4 bc
       0.08944803 -0.0046709934 -0.01083157 -0.022064153
0003b0 a5 5e 0e 3e 5a 75 04 bd 6f 29 6c be 95 9c d4 bc
       0.13903292 -0.032338478 -0.2306268 -0.02595357
0003c0 87 e6 40 3e ea 84 a3 3c 4b 75 b4 3d 49 b2 93 bd
       0.18837939 0.01996084 0.08811434 -0.072117396
0003d0 20 ff cf 3c d1 95 01 3d 14 50 d1 3d ef 9e fd bd
       0.025390208 0.031637017 0.10220352 -0.1238383
0003e0 ba 3d 16 3e a7 f5 45 3d a1 5e 17 be 41 a0 11 bd
       0.14671984 0.048329975 -0.14782192 -0.03555322
0003f0 73 2f 16 be 0e b0 a7 bc e2 a2 0b 3c 72 9a 74 bd
       -0.14666538 -0.020469692 0.008522721 -0.059717603

conv1.bias f4 [12]
000000 59 d8 bb 3c e0 e9 3e 3c d0 34 96 3d 01 d2 86 3c
       0.022930311 0.01165244 0.07334292 0.01645756
000010 7f 19 cd bb 8c c1 ba bd b1 2e e7 3c 19 05 82 3c
       -0.006259143 -0.091189474 0.028220506 0.015871571
000020 c8 16 b6 3c 2a ee 0d 3d f1 78 18 bd 8d d2 95 3d
       0.02222766 0.03465096 -0.037224714 0.0731555

rdbs.0.local_res_block.0.conv.weight f4 [12, 12, 3, 3]
000000 92 11 71 3d 55 d2 8b bd f8 b8 41 be d3 f4 8d bd
       0.058854647 -0.06827227 -0.18918216 -0.06931462
000010 50 10 60 bd 9f 54 8a bd b4 ed 15 3e dc c1 04 3d
       -0.054703057 -0.067544214 0.14641458 0.03241144
000020 db 9f 46 bd f7 5b c3 bd 86 03 25 be 2c 20 8f 3c
       -0.048492294 -0.09539025 -0.16114625 0.017471395
000030 e8 f1 0c be c0 ff 84 3c 18 2e 8a 3d 66 f9 55 bd
       -0.13764155 0.016235232 0.06747073 -0.052239798
000040 6f 46 a6 3d b1 e3 12 3d 8b ad b1 3e 7b 57 32 be
       0.08118903 0.035861675 0.34702715 -0.17416184
000050 15 20 87 3b d3 ac 94 bd a4 3a de bd 5e 80 d6 bc
       0.0041236975 -0.07259526 -0.108510286 -0.026184257
000060 bf e4 86 bd 4f 19 de bd 27 f4 bd bd eb eb 2a 3e
       -0.065865986 -0.10844671 -0.09275084 0.16691558
000070 ba 6a a6 bd dd e7 17 be 04 d9 89 bb 23 c2 03 3c
       -0.08125825 -0.14834543 -0.0042067785 0.008041891
000080 d6 2a 39 be 1b f5 42 be ad db dc bd 09 e0 6c be
       -0.18082747 -0.19038813 -0.10784087 -0.23132338
000090 f0 b9 f2 3c 94 f1 01 3e 1a 09 84 3c 12 a0 48 3e
       0.029629678 0.12689811 0.016117621 0.19592312
0000a0 07 8c f5 3c 9e 14 1d 3d 35 04 06 3e 27 e3 41 3c
       0.029973997 0.03834974 0.13087542 0.0118339425
0000b0 20 20 85 3d 17 e0 63 3e 20 6f 1b 3d ae 4b 3b be
       0.06500268 0.22253452 0.037947774 -0.18290588
0000c0 7f 62 9b 3d 3b 9d a6 3d da 1b 34 3e e8 38 26 3d
       0.07587146 0.08135458 0.1758875 0.040581614
0000d0 4b 8a 3f 3d ac 91 7b 3e de cc 92 3d 0f 2f 51 bd
       0.046762746 0.24567288 0.071679816 -0.05107027
0000e0 4d 9c 63 bc e5 1c 3e 3d 33 92 ea bd a5 8d 23 bd
       -0.0138922455 0.046414275 -0.114536665 -0.039930005
0000f0 81 16 54 3b 6c 27 ee 3d 11 7b fe 3c b5 2e 77 3d
       0.0032362046 0.11628613 0.031064542 0.060347278
000100 c4 f6 23 3d 6c 9f a7 3c c9 e1 20 3d 9b c5 de 3b
       0.040030256 0.02046176 0.039277826 0.0067984588
000110 7a 26 e2 3d 22 03 a1 3d 9e ea 04 3e 71 7e ca 3c
       0.11042495 0.07861926 0.12980124 0.024718495
000120 79 a7 0a 3e 1a 91 d3 3d 4f 53 0e bd e7 29 e5 3d
       0.13540448 0.1033041 -0.034747418 0.11189633
000130 3d d3 31 bd cc 44 ac 3c 0a 8b 36 3e a5 8c b5 3c
       -0.043414343 0.021028899 0.17826477 0.022161791
000140 3a a0 00 3e 7a ff 11 be 1f 2d 26 be 5b 9a 86 bd
       0.12561122 -0.14257613 -0.1622815 -0.0657241
000150 81 07 17 bd 7e 12 51 3b b9 3b 8e bc af 31 9b bd
       -0.03687239 0.0031901891 -0.017362462 -0.07577836
000160 35 df 8c 3d a6 23 8f 3b fa ad a0 be 33 f6 17 3c
       0.06878511 0.0043682633 -0.31382734 0.009275007
000170 e2 d8 2a 3e a2 04 57 be e3 6c 15 bc e9 e7 aa 3b
       0.16684297 -0.20997861 -0.009120199 0.005215634
000180 b6 69 b6 bd 31 bb 16 3e 03 f7 f9 3c 4f 88 dd bd
       -0.089068815 0.14719845 0.030513292 -0.108170144
000190 7d 02 3f be 00 46 49 3e 89 8a e8 bd 48 12 a1 3c
       -0.18653293 0.19655609 -0.113545485 0.019662037
0001a0 3d 5c 43 3e 03 ff 49 bd 7c 9f be bb b4 76 e0 bb
       0.19078155 -0.049315464 -0.005817352 -0.006850088
0001b0 36 31 a1 bd 12 cf 80 bd aa cb fe bc c3 d2 b5 3d
       -0.07870714 -0.062894955 -0.031102974 0.0887809
0001c0 eb b7 1d be e9 58 8c be 50 d1 a4 bc 64 05 bf bd
       -0.1540219 -0.27411583 -0.02011934 -0.093272
0001d0 85 64 91 bd c6 53 15 bc 68 8e 1d bd 83 28 4b 3e
       -0.07099251 -0.009114211 -0.038465887 0.19839673
0001e0 b9 00 af bd 97 bd 16 be 4b 0d 61 bd ee 30 bf 3c
       -0.0854506 -0.1472076 -0.054944318 0.023338761
0001f0 ab 34 23 be 9c f6 12 bd 8c 76 79 be 52 06 92 bd
       -0.1593806 -0.035879716 -0.24361628 -0.07130112
000200 84 bb e4 bd a2 2b d7 3d 55 5e 40 bb d1 93 60 be
       -0.11168578 0.10506369 -0.0029353101 -0.21931387
000210 76 76 4e 3d 9c db 87 3d e1 5c bb 3d f9 b5 6f bd
       0.050405942 0.06633684 0.091485746 -0.058523152
000220 c4 ac f2 3d e9 67 80 3d de dc d1 bd f1 62 28 3e
       0.11849359 0.06269819 -0.10247205 0.16443993
000230 c2 e2 8b 3d bb 5f 78 be f8 85 3f 3c d1 b2 b5 3d
       0.0683036 -0.24255268 0.0116896555 0.08871997
000240 e5 73 37 3d 98 47 38 3d 25 11 4c bc f8 50 8a bd
       0.04478826 0.044990152 -0.012455259 -0.06753725
000250 d3 24 25 be 54 9c b1 bd 47 1a 0b be 78 35 9c bd
       -0.16127329 -0.08672395 -0.13584243 -0.07627386
000260 f3 27 24 be de ce b5 3d 93 a1 b5 3c e2 89 61 3d
       -0.16030864 0.088773474 0.022171771 0.055063136
000270 87 83 85 bc bc 89 d3 3c 19 62 7c 3d d6 6f 53 bb
       -0.016298069 0.025822513 0.06161699 -0.0032262704
000280 01 c5 0c bb bc 12 c1 bd 26 2d 26 bc 86 4a 88 3d
       -0.0021479728 -0.094274014 -0.0101426 0.06654839
000290 2f 4f f3 bc dc 52 e7 bd 3b 15 8f 3d 66 4a fd bd
       -0.029700844 -0.11295101 0.06986471 -0.12367706
0002a0 d6 e2 7f bd 3b cf 04 3d 33 9e 12 bd f5 4e bb 3d
       -0.062472187 0.032424193 -0.0357954 0.09145919
0002b0 b6 af 31 3b 9e 03 ce 3c 8e 19 0a bd 0a 94 2b be
       0.0027112789 0.02514821 -0.033715777 -0.16755691
0002c0 7d 0a a8 bd 15 1f 96 bd 87 5f 06 bd 5d 8b 58 bd
       -0.082051255 -0.07330147 -0.032805946 -0.052867282
0002d0 4d 20 d3 3c 34 1b 16 be 66 7d 66 be 64 69 aa 3d
       0.025772238 -0.14658815 -0.22508773 0.08320883
0002e0 d8 73 2b 3e 3e 1c e3 3d 63 a7 31 3d 6f d0 47 3c
       0.1674341 0.11089371 0.043372523 0.012195691
0002f0 c3 38 33 3d 29 d0 6c 3d 1e d0 bf 3d fa b7 f6 bd
       0.043755304 0.057815704 0.09365867 -0.120468095
000300 ae e4 2d be 62 81 14 bd 16 de b0 3d 24 3b 27 bc
       -0.16981766 -0.0362562 0.086361095 -0.010206971
000310 df 1b 8e bd 2b fc a5 3d f6 c4 9f 3d 02 a1 8b 3d
       -0.0693891 0.08104738 0.07801239 0.06817819
000320 4e 41 a0 3d 65 eb a0 3d 23 72 27 be 80 52 6d bd
       0.07824956 0.07857398 -0.16352133 -0.057940006
000330 77 49 05 3e 97 23 d2 3d 4b 22 ff bd 61 e3 5c 3d
       0.13016306 0.102606945 -0.12457713 0.053927783
000340 2f 04 a3 3e 14 8c 92 3d 03 0e 12 be db 85 85 3e
       0.3183913 0.07155624 -0.14263158 0.26078686
000350 78 e7 45 3e 25 7b 74 bd 73 f8 4e be 39 67 da 3d
       0.1932658 -0.059687752 -0.20211963 0.106642194
000360 01 b0 ec bb 1c 22 8a bc fc 1d 38 3e 6d 62 da 3c
       -0.0072231297 -0.016861968 0.17980188 0.026658261
000370 a4 83 53 bd 73 5f 2f 3e 58 d8 a6 3c 1f 0a a5 bc
       -0.051639214 0.17126255 0.020366833 -0.020146428
000380 80 15 fe 3d 5d 94 71 3e c0 bc fd 3d 83 c8 cb bd
       0.124064445 0.23591752 0.12389517 -0.09950354
000390 30 97 04 3e ca 69 00 3e cf 36 ae bd 09 66 d5 3d
       0.12948298 0.12540355 -0.08506548 0.10419852
0003a0 b7 6c 23 bd aa 68 f9 bd 5c 44 0a 3e 42 ee 4b bc
       -0.0398986 -0.12178166 0.1350264 -0.012446942
0003b0 52 69 2e bd 26 c0 80 3e 88 b7 a8 3d c7 fb 1c 3e
       -0.04258091 0.25146598 0.08238131 0.1533042
0003c0 54 c3 f5 3d 74 24 ee bc d4 72 7e bd 51 fb 82 3d
       0.120001465 -0.029070117 -0.062121227 0.06395591
0003d0 01 2f 95 3d 52 c0 0f 3e 06 c9 23 be 47 5e 54 bc
       0.07284356 0.14038208 -0.15994653 -0.012961931
0003e0 39 ea aa 3d 3a c1 a1 bc dd 8b 1f 3d 3d 7b 28 3e
       0.08345456 -0.019745458 0.038951743 0.16453262
0003f0 65 ef 03 bf 60 8d fa 3d ad ab 8f 3d 38 57 82 be
       -0.5153716 0.122339964 0.070151664 -0.25457168

rdbs.0.local_res_block.0.conv.bias f4 [12]
000000 1c 13 91 bd b2 06 29 be 7a ea 14 3b 06 0c 97 3c
       -0.07083723 -0.1650646 0.0022722767 0.01843835
000010 9b 4c 1c bd a7 26 3d bf 83 88 cc 3d 37 8f 97 3d
       -0.038158994 -0.73887104 0.09986975 0.07400363
000020 1b 03 67 be 23 c8 8b bb af f1 a7 bd 42 95 01 3d
       -0.22559778 -0.0042658015 -0.08200394 0.031636484

rdbs.0.local_res_block.1.conv.weight f4 [12, 24, 3, 3]
000000 48 55 39 bc c8 04 2b 3d 5a 0f e9 3c 61 72 12 be
       -0.011311837 0.041752607 0.028449703 -0.14301445
000010 53 31 a0 3d 7d 9c a9 bd fc 5e a2 bd e2 6e 93 bd
       0.07821908 -0.08281801 -0.07928273 -0.071988836
000020 cc f3 92 bc 7f 3b 95 bd 67 7a ce bd 91 bb 94 bc
       -0.017938517 -0.072867386 -0.1008194 -0.018155845
000030 e5 a6 db bd 9e d5 27 bd d3 0e d6 3c 5a d4 76 bd
       -0.10725192 -0.040975206 0.026130116 -0.060261108
000040 9e 58 2f bd 78 c4 6a 3d 3d 00 12 be e3 33 7b 3c
       -0.04280912 0.057316273 -0.14257903 0.015332195
000050 15 09 4a 3e 99 a1 14 bd a0 e3 ea ba 00 ad 0e 3e
       0.19730027 -0.036286924 -0.0017920621 0.13933182
000060 b4 43 31 bc 54 29 da 3d 42 1e b4 3c f0 55 c6 ba
       -0.010819364 0.10652414 0.021987084 -0.0015131813
000070 59 4e 7d 3d 57 69 08 be a7 55 8a bd ac 10 af 3d
       0.061842296 -0.13321434 -0.06754618 0.08548102
000080 1c 15 0f be 74 74 7f bd 1d c2 16 be a4 f8 5a be
       -0.13972896 -0.062366918 -0.14722486 -0.21383911
000090 ba 83 53 3d a3 67 9e bd 63 e7 b7 3c 5e 6a 80 3d
       0.051639296 -0.07734611 0.022449201 0.06270288
0000a0 e2 14 9f 3d 71 51 b0 3d 30 8a d1 bc e3 ca b5 3c
       0.07767655 0.08609284 -0.025578588 0.02219147
0000b0 d9 d3 c5 3d 46 0e 03 3e bd 12 81 bd 1f 4e 7b bd
       0.09659547 0.12798414 -0.06302402 -0.0613538
0000c0 a4 d8 8c 3e b7 72 b7 3d df 51 83 3c d7 34 9e 3d
       0.27509034 0.08957427 0.01603025 0.07724922
0000d0 23 24 80 3c 13 ae a4 3d 02 a7 8f 3d 61 11 9c 3d
       0.015642231 0.080410145 0.07014276 0.07620502
0000e0 29 64 3c 3e 04 f7 b1 3d e9 10 3b be fb fb 7e 3d
       0.18397583 0.086896926 -0.1826817 0.062252026
0000f0 9a 39 ac 3d ed a4 0a bd 33 f9 6f 3e 3d 8e 5e 3d
       0.08409424 -0.03384869 0.23434906 0.054334868
000100 d8 e8 d6 3c da 58 d8 bb e1 4e 87 3b b1 13 5c bd
       0.026234075 -0.006602389 0.004129276 -0.053729717
000110 f2 16 52 be d0 66 9e bd 19 61 9e bd 4b 69 06 bd
       -0.20516565 -0.07734454 -0.07733364 -0.03281526
000120 b5 a7 7c 3d a0 99 aa 3c 24 dc 87 3c 1a bc 61 3d
       0.061683375 0.020825207 0.016584463 0.05511103
000130 6c 09 a1 3d 70 68 dc 3d 5c 04 35 bd 8a 97 58 bd
       0.07863125 0.10762107 -0.04419361 -0.052878894
000140 08 08 2e bd 9e b7 e5 3d a0 47 f7 3c 2c 69 ed bc
       -0.042488128 0.11216663 0.03018552 -0.028980814
000150 c8 d0 29 3d 6d b8 15 3d 40 18 15 3d c6 8d a5 3d
       0.041458875 0.036552835 0.03640008 0.08083682
000160 31 30 5c 3d b3 34 41 3a 02 57 67 3d 91 ed 9c 3c
       0.053756896 0.00073702185 0.05647946 0.01915625
000170 d9 7c 45 be 13 d4 f8 3d 2c 33 8a bd 1c df 3e be
       -0.19285907 0.12149825 -0.067480415 -0.18639797
000180 3a e3 29 3e 07 1e 4b 3d c0 7b 37 bd 2b 7a e2 bd
       0.16590586 0.049589183 -0.04479575 -0.11058458
000190 90 5a 16 be a2 d1 a1 bc a2 97 1b bd 53 b5 43 bd
       -0.14682984 -0.019753281 -0.037986405 -0.047780346
0001a0 dc 10 6e 3d 85 d3 7f bd 60 2f 2c bd 85 1e 9b 3d
       0.058121547 -0.06245758 -0.042037368 0.075741805
0001b0 c0 4e c6 be dd f0 65 bd 7d 2d 18 be 9c 14 35 be
       -0.38731956 -0.05613791 -0.14861102 -0.17683643
0001c0 2f 84 15 3d 56 40 01 3b 11 b3 a1 be 21 b5 81 bd
       0.036503013 0.0019722185 -0.3158193 -0.06333376
0001d0 69 1a 62 be ee 45 fc 3d df ed 70 bd 51 6a da 3d
       -0.22080387 0.123180255 -0.0588206 0.106648095
0001e0 40 9c c3 3c 99 77 a5 3d e1 f2 8c bc 25 d2 ee bd
       0.023878217 0.08079452 -0.017205657 -0.11661176
0001f0 08 d4 72 3d 0c ee 9a 3d a4 8a df be 13 de 11 be
       0.05928424 0.07564935 -0.43660462 -0.14244871
000200 8d 6f a8 bd 87 47 b3 be b5 2f d6 bc 41 c6 0f bd
       -0.082244016 -0.3501551 -0.026145795 -0.03510118
000210 ec a0 ae be 43 9e 66 bc dd 73 1d 3d 6c 2a 25 be
       -0.3410715 -0.0140758185 0.038440574 -0.16129464
000220 76 56 ef bb 94 73 97 3d 70 e1 bc bd 44 be 58 3d
       -0.007304008 0.07395092 -0.09222686 0.052915826
000230 05 c9 ca bc 87 f6 7b be e6 2c 08 be c8 ca 54 be
       -0.024754057 -0.24605761 -0.13298377 -0.2078048
000240 44 d6 34 3d 37 43 99 bd f6 8b 1e be ec aa 51 3d
       0.044149652 -0.07483523 -0.15483078 0.051188394
000250 9f 97 5b bb 05 eb 15 be 74 ca 0b bd df 3b ba bc
       -0.0033507121 -0.14640434 -0.03412862 -0.022733627
000260 2e 2d 00 be b7 21 f6 3e 39 d0 bc 3e 52 ee c6 3d
       -0.12517235 0.48072597 0.3687761 0.09713425
000270 0f c5 71 3e 8b e4 ab 3e bb 39 03 3e 47 59 cd 3e
       0.23610328 0.33572802 0.12814991 0.40107176
000280 ec 2e 3c 3e 8f f3 49 3e 60 61 0a 3d b5 46 4f 3d
       0.18377274 0.19721816 0.03378427 0.05060454
000290 d0 ff 22 3d cd e9 2e 3d 6a 22 a2 3d d7 0c 2d bd
       0.039794743 0.04270344 0.0791672 -0.042248573
0002a0 57 cb d1 3d 9a 69 0c 3d 5d e8 1f bc 8e 83 b3 3d
       0.10243862 0.034280397 -0.00975999 0.087653264
0002b0 42 72 5f 3b 6e eb 85 3d 06 79 f6 bc 60 e1 51 bc
       0.0034095203 0.06539045 -0.030087005 -0.012810081
0002c0 7a 63 43 3d 49 cc 50 3d 30 90 c2 3d 5f 41 0c 3e
       0.04770229 0.05097607 0.09500158 0.13696812
0002d0 06 c3 f3 bd 3c ee d2 bd 96 5d 5b be 0b 2a 32 be
       -0.11902432 -0.10299346 -0.21422419 -0.1739885
0002e0 0b 99 28 3e 9b 5e 4b bd c9 84 b0 bd aa cd 89 be
       0.16464631 -0.04965077 -0.08619077 -0.26914722
0002f0 cc f2 25 be 81 1c 84 be 51 9f 05 3d 8a 1b ad 3d
       -0.16205901 -0.25802997 0.03262264 0.08452518
000300 34 54 24 be 61 ed 01 bc 70 e1 cc b9 41 62 0e 3e
       -0.16047746 -0.007930131 -0.00039077876 0.13904668
000310 d1 e5 69 bd 6c af df bc 8a b9 f6 bd e1 38 93 bd
       -0.057103936 -0.027305327 -0.120471075 -0.07188583
000320 bd 23 40 3d 0e 5a 19 3c 0f 1a 01 be 97 36 af bc
       0.046909083 0.00935985 -0.12607597 -0.021388335
000330 b4 42 1a bc ea 9a f2 bc 75 de 0b be 1d 02 df 3d
       -0.009415317 -0.029614884 -0.1365908 0.10889075
000340 e9 f8 9d 3d e6 4c 0b 3e 69 eb 05 bc eb d9 5d bd
       0.077134915 0.13603553 -0.008173802 -0.0541629
000350 a2 39 36 bd 6e 36 86 bd df 7c c1 bd 01 34 a2 3b
       -0.044488557 -0.065533504 -0.094476454 0.004950047
000360 8d 12 5f bd 6e 8e f1 3c 2e 41 b3 bd ff f4 34 3c
       -0.05446105 0.029486861 -0.087526664 0.01104474
000370 6e 80 7f 3c 78 9b 76 3d 57 98 bf bd 87 db 97 bd
       0.015594585 0.06020686 -0.093552284 -0.074149184
000380 18 d3 24 3d 68 cf 0f 3d 4c e8 e5 bd f9 4b 7d 3c
       0.040240377 0.035109907 -0.11225948 0.015460008
000390 8f 29 eb 3d 53 ff 8f ba 0a a3 8d bd 82 66 0d 3d
       0.11482536 -0.0010986127 -0.06915863 0.034521587
0003a0 5f cb 99 bc ca 27 a6 bd 40 0d e9 3d 0f 5e 47 3d
       -0.018773733 -0.08113058 0.1137948 0.048673686
0003b0 54 b8 4f 3d 52 fd 9a bd 28 f8 98 3d f3 61 b0 3d
       0.0507129 -0.07567848 0.07469207 0.08612432
0003c0 e5 f7 00 3d b8 77 5e bc 3d 2c 8d 3c 34 02 8b bd
       0.03148641 -0.013578348 0.017233009 -0.067875296
0003d0 cf 06 49 bd e0 b1 57 3d 98 76 e5 3c 52 d7 22 3c
       -0.04907876 0.05265987 0.028010651 0.009939032
0003e0 d3 02 91 bd 6a 3a c1 3d 78 0c 97 3d 75 75 ac 3c
       -0.07080617 0.0943497 0.07375425 0.021052102
0003f0 50 cc 18 be 59 80 a8 bd 15 a1 5a be 16 48 f8 3c
       -0.14921689 -0.082276054 -0.2135051 0.03030781

rdbs.0.local_res_block.1.conv.bias f4 [12]
000000 60 d8 56 3e b6 63 5c be 33 83 04 be 26 17 e0 3d
       0.20980978 -0.21522412 -0.12940674 0.10941915
000010 bb d2 d5 bd d0 5d 98 3d d5 ae 19 be 81 27 c9 3d
       -0.10440584 0.07439768 -0.150081 0.09821988
000020 d2 ea 9e bd 44 3c 9b bd b0 15 d5 3c 7e 46 5c 3d
       -0.07759632 -0.07579854 0.026011318 0.053778164

rdbs.0.local_res_block.2.conv.weight f4 [12, 36, 3, 3]
000000 71 a7 96 bd 6e f6 15 3d 02 ee e0 bc 37 45 6a 3d
       -0.07356156 0.036611967 -0.027457241 0.057194915
000010 57 5e a3 bc 36 2c 34 3d 64 94 48 bd bf e6 52 3d
       -0.019942446 0.043987475 -0.04896964 0.051489588
000020 20 b8 cd 3c 53 a0 48 3d 37 11 28 bd 9c 7b 05 bd
       0.025112212 0.048981022 -0.041032042 -0.032588586
000030 7e a9 6f bc ed 03 c0 3c a2 9a 4d bd 68 46 71 3c
       -0.014627812 0.023439372 -0.050196297 0.014726259
000040 ab a6 8c 3d a4 1a 30 3d df c0 bb bd b4 a6 12 be
       0.06867727 0.042994156 -0.091676466 -0.14321405
000050 d8 35 22 3d 22 ae f3 bd 90 dc e7 bd f4 80 a3 be
       0.03960213 -0.118984476 -0.11321366 -0.3193432
000060 8a dd d5 bb 41 88 db bd d9 6b 77 bd bc e6 7f 3d
       -0.0065266537 -0.10719348 -0.060405586 0.062475905
000070 d7 b1 60 3d 7c cc 78 3c 49 fd 54 3d 7f d5 7c bc
       0.0548571 0.015185472 0.051999364 -0.015431761
000080 97 ca e2 3c ab 8f 78 3c 64 1d d1 bc 72 ca 66 bd
       0.027684493 0.015170972 -0.02552671 -0.05634541
000090 66 97 80 bc de fd 10 bd 24 89 1a be 34 1c bf 3d
       -0.015697192 -0.035398357 -0.15091377 0.09331551
0000a0 96 59 01 bd 0a 8d 75 be 53 0d e1 bd 39 a3 80 bd
       -0.031579576 -0.23979583 -0.109888695 -0.06281132
0000b0 2a 8e c9 bd 3e 4c a6 bd 5f 16 85 3d d0 21 63 bc
       -0.09841569 -0.08120011 0.064984076 -0.013863042
0000c0 17 97 d0 3d 58 86 cd 3d 65 83 3b 3d f1 cd e6 3d
       0.10185068 0.1003539 0.045779604 0.11269749
0000d0 39 d9 d8 3d 45 de 14 be 26 94 65 bd 35 0a e8 bc
       0.10588307 -0.14537914 -0.05604949 -0.02832518
0000e0 04 a3 5e 3c af 93 07 3d ea b6 ff ba 95 03 f2 bc
       0.013588671 0.033099826 -0.0019509469 -0.029542724
0000f0 86 56 be bd a9 42 d5 bd 49 e7 ef 3c ee 29 27 3d
       -0.09293847 -0.10413105 0.02928509 0.04081147
000100 dc a5 be bd cb 11 43 3c c2 e0 0f bd 05 78 99 bd
       -0.09308979 0.011906098 -0.035126455 -0.07493595
000110 b1 9a 06 be 84 cd f0 bd 75 49 41 be 2c b1 b7 3c
       -0.13144948 -0.11757949 -0.18875678 0.02242335
000120 33 1f 48 3d ea c7 31 be ac 44 ab bd 70 3f 92 3d
       0.04885788 -0.17361417 -0.083627075 0.07141006
000130 ad f8 bb bd ed b7 4e bd ef 1b b8 bd d0 be cf bc
       -0.091782905 -0.050468374 -0.08989703 -0.025359541
000140 47 01 36 bd 59 a9 8e 3d 70 88 0b 3d b1 c5 16 3c
       -0.044434812 0.06965894 0.034065664 0.009202407
000150 9e 19 b5 3b b1 c3 d4 bc 28 5d 93 bc 9f 68 b6 bd
       0.0055267354 -0.02597222 -0.017988756 -0.08906674
000160 a6 ed cc bc ef 6c 98 3d 8a 42 15 be 8d 67 fe bd
       -0.025015663 0.074426524 -0.14576164 -0.124220945
000170 1a bf b0 bd e4 af a4 bd d2 c5 5d bd 29 ac be bd
       -0.086302 -0.08041361 -0.054143734 -0.09310181
000180 19 f6 52 bd 55 d1 b7 3b 26 c7 b5 bd 39 70 b7 3d
       -0.05150423 0.005609671 -0.08875875 0.08956952
000190 05 8a bc 3c 48 08 b0 bc ee 85 29 3d e9 50 76 ba
       0.023015032 -0.021488324 0.04138749 -0.0009396212
0001a0 e9 84 db bd eb 9e d9 3c 9b 5a 5d 3e d6 fa d9 3d
       -0.1071871 0.026565036 0.21616594 0.10643546
0001b0 a5 1a 13 3e 1a 6f 62 3e 62 d3 0f 3e 1a 44 cb bd
       0.14365633 0.22112694 0.1404548 -0.09925099
0001c0 f5 e2 b7 bd e8 40 eb bd 76 60 9d bc 92 d3 18 bd
       -0.089788355 -0.11486989 -0.019211035 -0.037311144
0001d0 fe 4d 40 be 25 34 1e 3d ef f1 a3 3e a7 57 70 3c
       -0.18779752 0.038623948 0.32020518 0.014669335
0001e0 64 f4 5b bc 22 a0 fc 3c 00 1c 07 3e 5c b0 3a 3e
       -0.0134249665 0.030838076 0.13194275 0.18231338
0001f0 89 28 bc 3d 13 9f 0b 3e ab 8e a0 3b 04 51 b2 bc
       0.09187419 0.13634901 0.00489982 -0.021767147
000200 92 94 56 3d f9 52 17 be af ca 71 bd 2a 48 57 bd
       0.05238778 -0.14777745 -0.059031185 -0.052559055
000210 c0 8c 6d bd 3a a4 82 3c 25 79 9f 3d 4a 66 e7 bc
       -0.057995558 0.01594745 0.07786778 -0.028247017
000220 be 54 0f bd 6a bd 6c bc 15 5c 13 be 1b 16 44 be
       -0.034992926 -0.014449457 -0.14390595 -0.19149058
000230 71 65 3b bd d2 4f 0f bd 15 fa 57 bd ab 80 75 3c
       -0.04575104 -0.034988232 -0.05272873 0.01498429
000240 2c 50 43 be 68 91 c3 bd 6a b2 c2 bd 9f 99 66 bd
       -0.19073552 -0.095492184 -0.09506686 -0.05629885
000250 2a 0b 97 bd 3e f1 b8 bc 27 09 ff bd d1 98 fc bd
       -0.07375176 -0.02257597 -0.124529175 -0.12333835
000260 8e 73 b8 bd 47 60 49 bf b9 ce a3 be 8f 25 b9 3d
       -0.09006415 -0.7866253 -0.31993654 0.09040367
000270 41 6c b6 be 49 13 87 be 0c 0c 18 bf 7e 36 3a be
       -0.35629466 -0.263819 -0.5939338 -0.1818485
000280 3a 9d e6 be c6 9d e4 be a5 02 9c bc 6a f6 49 bd
       -0.4504183 -0.44651622 -0.01904423 -0.049307264
000290 be 49 96 bc 78 25 cf bd ab ac a2 bc 0c 42 d2 3d
       -0.01834571 -0.101145685 -0.019857725 0.10266504
0002a0 e4 d6 63 bd 19 c6 3d 3e cb bb 31 3e 97 6a 16 3d
       -0.055624858 0.185326 0.17356794 0.036722746
0002b0 f6 f0 1e bc 6b 10 b8 bb c5 64 de bb 4d b9 5c 3d
       -0.009701004 -0.0056171915 -0.006786915 0.053887654
0002c0 16 21 9c 3d 2a 49 16 be 89 ac 92 bd 18 bb 4e bd
       0.07623498 -0.14676347 -0.07161815 -0.050471395
0002d0 d1 1f 92 3d 43 86 2f bd 71 bd de 3d b5 ee ef 3d
       0.07134975 -0.04285265 0.10875977 0.11715452
0002e0 95 11 15 be 43 8d 37 3d 1a aa 6d 3e 16 ea 98 3e
       -0.14557488 0.044812452 0.2320942 0.29866093
0002f0 44 88 f1 3d 62 dc 9d bc 45 0f 09 3d ee 8e d3 bd
       0.11793569 -0.019270126 0.033461828 -0.10329996
000300 36 49 21 3e 99 ea 53 3e 49 e9 e5 3a 16 dd ba 3e
       0.15750584 0.2069496 0.0017540838 0.364968
000310 11 8b de 3e ab fa 21 3e aa f2 7d bd e8 7b be 3d
       0.43465474 0.15818278 -0.061999 0.09300977
000320 a4 f3 31 3e a3 4e 96 bd 9f be 7a bd 71 c7 8b bd
       0.17378098 -0.073392175 -0.061216947 -0.0682515
000330 b5 77 0b bd e0 3a 82 3c 42 1f c6 bc 55 51 60 bd
       -0.03404971 0.015897214 -0.024184827 -0.054765064
000340 97 0a bc bb 14 09 3b bc 8c 22 d3 3d 60 d3 1b 3c
       -0.005738567 -0.011415739 0.10309324 0.009510845
000350 c5 cd 4d 3e fe cc 66 3e 8f 5c f3 3d 06 e9 cb 3d
       0.20098026 0.22539136 0.118828885 0.09956555
000360 fc df 84 be e6 41 d4 bd 24 15 63 be 47 fd 07 bd
       -0.25952137 -0.10364132 -0.22176033 -0.03320053
000370 78 72 04 3e c8 64 a6 3c 5f a4 f0 bd 4d c0 20 3d
       0.12934291 0.020311728 -0.11750101 0.039245892
000380 9a f6 17 be 75 50 4f be f3 ca 29 3e 79 d7 57 bd
       -0.14840165 -0.20245536 0.16581325 -0.052695725
000390 3c 7d 0a 3d 81 8e 30 3e ea 24 1e bd 2e 26 b2 3e
       0.03381084 0.17241861 -0.038609423 0.34794754
0003a0 41 c1 50 3d 33 ca 05 be b2 6f 7c 3d 65 0c 30 3d
       0.05096555 -0.13065414 0.06162996 0.04298057
0003b0 d4 5b 12 3e 0c 17 a4 bd 54 cb 72 3d 46 1e 95 3d
       0.14292842 -0.08012208 0.05927594 0.07281165
0003c0 54 e5 e0 3d 08 32 95 3d f6 11 5a 3e da 71 2d bd
       0.10981241 0.07284933 0.21295914 -0.042344905
0003d0 28 e3 34 3b 6b e0 14 3d 78 af 5d bd 0e b2 17 bd
       0.0027601216 0.036346834 -0.05412242 -0.03703504
0003e0 26 b6 62 3d 2a 54 b8 bb 65 d5 8e 3d 31 5d 18 3e
       0.05534949 -0.0056252675 0.069742955 0.148793
0003f0 86 10 1e bd c2 2a 85 bc 86 06 61 3c c8 2b 67 bd
       -0.038589977 -0.01625574 0.013734465 -0.056438237

rdbs.0.local_res_block.2.conv.bias f4 [12]
000000 4d 33 a6 bd b3 0a ab bd 53 df 88 bd 8c 40 be bd
       -0.081152536 -0.0835165 -0.06683221 -0.09289655
000010 dc 26 0b bc fc be a0 bd 92 9b 49 3d 2f 70 bc bd
       -0.0084931515 -0.078489274 0.04922063 -0.09201085
000020 dc b5 8f 3d 0c 59 dd 3d 21 0f 20 3d d2 4a 66 3d
       0.07017109 0.10808 0.039076928 0.056223698

rdbs.0.local_res_block.3.conv.weight f4 [12, 48, 3, 3]
000000 1b 58 1b bd bd 02 e9 bb ef af f1 bc 78 46 e1 bc
       -0.03792582 -0.007110922 -0.029502837 -0.027499422
000010 fb 5b 04 3d e7 2f e7 bc cc 1f 1a bd 81 b1 a6 bc
       0.032314282 -0.028221084 -0.03762798 -0.020348312
000020 f1 01 47 bc 83 15 15 3d 92 65 f3 bb 58 ee 3e 3b
       -0.012146459 0.03639747 -0.0074278796 0.0029133763
000030 80 e8 fb bc 0d ef 2a bc 5a aa 4a b8 39 0e 07 3c
       -0.030750513 -0.010432971 -4.8319205e-05 0.008243137
000040 a0 0b a0 bc 27 a6 9f bb 1d 8b 88 3c 52 e1 23 3c
       -0.019536793 -0.004872102 0.016667897 0.010002451
000050 3d b3 da bc f1 e5 30 3d f8 b8 e5 3c c5 0c 1f 3c
       -0.026696796 0.04318804 0.028042302 0.009707634
000060 1b 8c cc bc 69 4c 00 bd 71 78 88 bc cc b9 ae bc
       -0.024969151 -0.03132287 -0.016658993 -0.02132883
000070 21 2e 36 3c 5b 99 de bc 54 cb c2 3a 8d 59 40 3c
       0.011119396 -0.027172735 0.0014861622 0.011740101
000080 8a a5 af 3b 79 a9 28 3b 0f 6f 8f bb bd 9b d7 3c
       0.00536031 0.002573578 -0.004377253 0.026319379
000090 b4 89 84 3c 62 90 14 3d e2 35 02 bd 8f 07 5a bd
       0.016178943 0.036270507 -0.031789668 -0.053229865
0000a0 ae 93 be bc 69 63 c6 bc 19 05 99 bc 72 de 6d 3a
       -0.023263779 -0.024217324 -0.018679189 0.00090739795
0000b0 d9 2a 16 bc 28 2f 23 bd 47 ca 24 b8 0f ef 53 bd
       -0.009165489 -0.039839894 -3.9289032e-05 -0.051741656
0000c0 07 2f ff bc d4 03 66 bc 5d 01 2b bd ff 2c 3d bc
       -0.031150354 -0.014038999 -0.041749347 -0.011546372
0000d0 5f de 9c bc 9b bb 13 3d 3f 87 44 3d 24 fb 26 bd
       -0.019149004 0.036067586 0.047980543 -0.04076685
0000e0 54 4d d5 3c 51 b5 f8 3c 30 9e d4 bc 3a 79 75 3c
       0.02603785 0.030359896 -0.025954336 0.014982516
0000f0 ec ca e8 bc d3 3f 00 3d 2e 9e 14 bd 80 34 23 bc
       -0.028417073 0.031310868 -0.036283664 -0.009961247
000100 c0 2b 72 bc 59 1f 99 3c 32 6d 66 bb 71 8b 3b bc
       -0.014780939 0.018691706 -0.00351603 -0.01144682
000110 33 04 c7 ba 51 c1 7a bc c0 65 53 bd a4 72 06 bd
       -0.0015183747 -0.015304879 -0.05161071 -0.032824174
000120 80 48 dc 3c 32 85 2d 3c e0 3e 9d b9 9f 46 15 bd
       0.02689004 0.010590838 -0.0002999222 -0.036444303
000130 e9 c8 03 3b b0 fd 40 3c 30 76 dc 3c 6d 63 4f bd
       0.0020108765 0.011779234 0.026911825 -0.05063193
000140 fb 96 2c 3d a6 70 79 3c cc 91 e5 bc b6 fc a9 bc
       0.042136174 0.015224611 -0.028023623 -0.020750385
000150 2a b5 b0 3c d4 bc 0c bd d1 22 14 bd 55 d8 a3 3c
       0.02157076 -0.034359768 -0.036166016 0.020000616
000160 57 41 a9 3c 10 98 38 bd aa 23 47 3d 4c cf 3e 3c
       0.02066104 -0.045066893 0.048617996 0.011646103
000170 64 4e 53 bd 86 19 18 ba 8c 65 3c 3d 57 f2 f7 3c
       -0.05158843 -0.0005802143 0.04599528 0.030266924
000180 7a 95 1d 3d ce 48 46 bc fe 37 06 3d 42 f3 8b 3c
       0.03847263 -0.012102319 0.032768242 0.017083768
000190 8b 60 a9 3c b6 8e 38 bd 9f 99 6e 3c a9 82 5c bd
       0.020675918 -0.045057975 0.014562993 -0.053835545
0001a0 fe dc 9d 3c 11 e1 ee bc 1c dc b8 3c b7 33 14 bd
       0.019270416 -0.029160054 0.022565894 -0.03618213
0001b0 41 ac 9c bc df ce 3a bc c6 e0 ba bc 0f 26 b5 bc
       -0.019125106 -0.011401861 -0.022812258 -0.022112874
0001c0 d3 99 ad 3c 9f 05 be 3b 1e a1 d5 3c 2f 2b 06 ba
       0.021191513 0.00579901 0.026077803 -0.0005118129
0001d0 7f d8 65 bb b6 5a 4f bc 12 d0 bf bc 01 db 9e 3b
       -0.0035071669 -0.0126559045 -0.023414645 0.0048478846
0001e0 ad c2 e0 ba f4 6d 9e bc 36 49 b7 bb a0 52 0e bd
       -0.0017147862 -0.01933954 -0.005593444 -0.034746766
0001f0 27 33 9d bc e6 21 9f 3b a3 43 18 bd 32 f6 47 bd
       -0.01918943 0.004856336 -0.03717388 -0.048818775
000200 ab 00 26 bc 7a 43 4b bd 51 d8 b5 3c 17 d9 dd 3c
       -0.010131995 -0.049624898 0.022197874 0.027081056
000210 fa 9d 1d 3d 30 fb 0f 3d 14 bf b1 bc cd a5 c7 3c
       0.038480736 0.03515166 -0.021697558 0.024371052
000220 8c e7 c9 bc 9a dd 7e bc 48 fa 5d bc ba c4 b3 bb
       -0.024646543 -0.015555764 -0.013548441 -0.005486098
000230 05 31 2a bd 60 d1 5b bc 79 65 5c 3a 3e e3 53 bd
       -0.041550655 -0.013416618 0.00084074546 -0.051730387
000240 12 a2 e4 bc ce 16 35 bb 41 d1 4d bc e6 89 69 bd
       -0.027909312 -0.0027632 -0.012562097 -0.057016276
000250 9d 8c f7 3c c8 d5 a2 3a 70 a5 e7 3c 0a f7 f4 ba
       0.030218417 0.0012423331 0.028277129 -0.0018689346
000260 28 b8 05 bd 7a 04 08 3d e3 f3 38 3d 27 05 8c 3c
       -0.03264633 0.033207394 0.045154463 0.0170923
000270 a2 51 ad 3c 80 85 1c 3d fc b9 a0 bc 6b a1 9f bc
       0.02115709 0.038213253 -0.019619934 -0.01948615
000280 25 b1 e2 bc 94 b6 4e bb 8c 26 1a bd 7e 94 84 bb
       -0.02767236 -0.003154193 -0.037634417 -0.004046022
000290 dc e0 e3 3c bd 15 82 bc 73 7a b0 bc e4 21 fd 3c
       0.027817182 -0.015879506 -0.021542763 0.03089995
0002a0 5e 49 43 ba 6b 75 3f bd 44 7a a8 bc 7c 5a 1d bd
       -0.0007449592 -0.046742838 -0.020566113 -0.03841637
0002b0 5b 32 ad 3c 05 8e cb bc 0b 27 2c bc 82 a7 63 bd
       0.021142175 -0.024847994 -0.010507355 -0.05557967
0002c0 79 c8 c8 bc fe 0d 06 bd c1 69 3d bd 0b bd 5a bd
       -0.024509655 -0.032728188 -0.046243433 -0.05340294
0002d0 ce b4 19 3c dc 77 e1 3b c6 67 fa 3b a0 17 d7 bc
       0.009381486 0.0068807434 0.0076417653 -0.026256382
0002e0 54 48 93 bc f3 ee 43 bd 27 86 fa 3c 8f ce 10 bc
       -0.017978825 -0.0478353 0.030581547 -0.00883831
0002f0 d3 90 c8 3b eb f9 7e bd 1f 27 05 bd a7 b8 b7 3c
       0.00612078 -0.06225006 -0.032508012 0.022426916
000300 04 84 3a bd 8d 05 0a 3c 92 0e c7 bc 31 1f 53 bd
       -0.045536056 0.008424175 -0.02429894 -0.05154342
000310 9b 49 a2 3b c9 71 8c 3c b1 72 ff bc 13 fc 8c bc
       0.004952622 0.0171441 -0.031182619 -0.017210042
000320 f7 f5 ca bb b4 1b 07 3d 8b 6d 46 bd cd 20 60 bc
       -0.006193872 0.032985404 -0.048444312 -0.013679695
000330 30 47 ba bc 1c 37 64 3c 13 9d 96 bb f6 a9 26 bd
       -0.022739023 0.013929155 -0.0045963614 -0.04068943
000340 9d 5f 34 bb e4 a6 a8 bc ef 38 43 bd 36 87 ee bc
       -0.002752281 -0.020587392 -0.047661718 -0.029117208
000350 58 6c 56 bd 93 75 9c bc 43 56 21 bd 59 f0 76 39
       -0.05234942 -0.019099033 -0.039388906 0.00023549925
000360 31 8f 4a 3c 13 fc 4a 3c 71 b0 5a bc 15 df a3 3c
       0.012363241 0.012389201 -0.013347731 0.020003835
000370 2d 3b 1e bd b8 77 ae bb 5f d5 44 bd d3 2c bd 3c
       -0.038630653 -0.00532433 -0.04805505 0.023092663
000380 e3 a9 c4 bc 30 d7 40 3d 93 c2 1e bb 96 f5 d9 bb
       -0.02400679 0.04708022 -0.0024224862 -0.0066515906
000390 5f de 29 bd ec cf 3a bc 1c 0b 8e bc 11 c3 27 bd
       -0.041471835 -0.0114021115 -0.017339282 -0.040957514
0003a0 1d 6d 28 bd 7c ea 3e bd 90 64 de 3c a7 d4 e8 bc
       -0.041119684 -0.04661034 0.027147561 -0.028421713
0003b0 8b f8 b7 bb 5c 5b 4a bd b6 91 aa 3b 04 2e 56 bd
       -0.0056143454 -0.049403533 0.0052053584 -0.052289978
0003c0 d2 ba 4b bd c4 f7 d3 bc 20 ad 83 3c ac 69 0f bb
       -0.049738713 -0.02587498 0.016073763 -0.0021883054
0003d0 03 5f e9 bb 95 9e 20 bd 73 88 8f bc b6 2a 26 bd
       -0.007121922 -0.039213736 -0.017521119 -0.040568076
0003e0 e4 b1 89 bc 3c c4 95 3c d9 d0 9e 3c 13 6f fc 3c
       -0.016808458 0.018282048 0.019386696 0.030814683
0003f0 58 68 fa 3c 8a 87 ae bc f2 9b 11 bd af 4e 01 bd
       0.030567333 -0.021304864 -0.03554911 -0.03156918

rdbs.0.local_res_block.3.conv.bias f4 [12]
000000 f6 c2 66 bd 07 7a 50 bd 34 2d f6 3c 52 7c a8 bd
       -0.056338273 -0.050897624 0.030050851 -0.08226837
000010 fc b2 23 bc ab ed 05 3e e6 0e 63 3d 9a 41 60 bd
       -0.009991404 0.13078944 0.05543413 -0.054750063
000020 b9 73 9d 3d 93 c1 5f 3b e1 9f 89 3d 28 33 5f 3d
       0.07688088 0.0034142479 0.067199476 0.054492146

rdbs.0.last_conv.weight f4 [12, 60, 1, 1]
000000 04 42 71 be 09 8e a0 bd 92 c1 a1 bb 76 4c 66 3d
       -0.23560339 -0.07839591 -0.0049364055 0.056225263
000010 fb 38 18 be 8e ad 42 3d 5f 8d 44 3c b4 29 3b 3a
       -0.14865486 0.047528796 0.011996596 0.0007139698
000020 bd 34 eb 3c 3f 31 1b 3e c5 ae 1f bd 3e a8 17 3e
       0.028711671 0.15155505 -0.038985033 0.14810273
000030 87 a2 0c 3e 69 3c ce 3d 38 b5 3d 3d 00 aa 07 3e
       0.13733874 0.10070116 0.0463154 0.13248444
000040 b6 29 08 be dc 8d 7f 3f 4d e7 92 bd 03 07 80 bd
       -0.13297161 0.99825835 -0.071730234 -0.062513374
000050 e1 80 ae bd 7c 22 da 3d 77 b8 02 3e 1c ec e4 bc
       -0.085206755 0.106511086 0.1276568 -0.027944617
000060 76 04 09 3e 42 30 dc bd f7 d1 0e bd 0a 46 29 be
       0.13380608 -0.10751392 -0.034868207 -0.16530624
000070 4a 5e 4b bd 88 03 57 bd 74 f1 b1 bd 27 02 0b bd
       -0.049650468 -0.052493602 -0.08688632 -0.0339376
000080 ab c3 ca bd 16 fe 95 bd ef db 5e 3d ce f9 07 be
       -0.09900602 -0.07323854 0.054408964 -0.13278887
000090 2b 8c 67 be 69 5e a0 bd 50 da ef 3d 2d 63 60 bc
       -0.22612064 -0.07830507 0.11711562 -0.01369552
0000a0 a4 c1 36 bd 5d dd 85 3d 39 8e fa 3d 90 5d 78 bd
       -0.044618264 0.06536362 0.12234158 -0.060636103
0000b0 d0 88 ee 3c 62 a3 79 3d da 4b 5c be 31 6e fd 3c
       0.029117972 0.06094683 -0.2151331 0.030936332
0000c0 69 f9 f4 3d 5e ab 81 bc 6f ca 7e 3e 8b c5 a3 bd
       0.11961634 -0.015828785 0.2488191 -0.07996663
0000d0 0c eb c0 3d fd 9b 87 bd 0a ff 3b be 1c b9 c2 bd
       0.09419832 -0.06621549 -0.18359008 -0.09507963
0000e0 b5 4e 81 3e c7 bd a3 3d 51 8f bc bd 37 69 52 3d
       0.2525536 0.079951815 -0.09207023 0.051369872
0000f0 26 07 7e 3d 72 de f7 3d b5 d3 78 3e 41 53 10 be
       0.062018536 0.12102975 0.2429951 -0.14094259
000100 40 66 9a 3c bd 7b ea bd 86 ac 64 bd aa 27 ea 3d
       0.018847585 -0.114493825 -0.055828594 0.114333466
000110 e9 c9 24 bd 15 a1 b5 bd c1 48 da 3d 81 7b b5 bd
       -0.04023162 -0.088686146 0.10658408 -0.08861447
000120 77 a9 8d bc b6 d6 3f 3d 6a ba 66 bd cb 67 1d 3d
       -0.017292721 0.046835624 -0.056330122 0.038429063
000130 1e 54 e0 3d 08 16 b2 3f b5 65 6a bc 4f 25 4f bd
       0.10953544 1.3912973 -0.014306475 -0.05057269
000140 26 74 ef 3d 34 71 12 bc 12 28 3a bd e0 f3 4d 3c
       0.116920754 -0.008938123 -0.04544837 0.012570351
000150 e9 8c 06 bc 52 ad b4 bd f2 6f 3c 3e 57 73 18 3d
       -0.008212307 -0.08822121 0.18402079 0.03721937
000160 bf 7a bb bc ef e1 43 bd ef 97 e1 3b de e8 47 bd
       -0.022885678 -0.04782289 0.006884567 -0.048806064
000170 60 4e 63 3d d7 97 3b bc 39 e4 e6 bc 11 8c 11 bd
       0.055494666 -0.011449776 -0.028184997 -0.03553397
000180 1b c6 4a bc d7 35 3b 3d 5f 20 56 bd 1a 3b 59 bd
       -0.012376334 0.045705643 -0.052276965 -0.05303488
000190 10 78 d5 bc 83 84 1c bd e4 7f fe bb 74 2e f3 bc
       -0.026058227 -0.03821231 -0.0077667106 -0.029685237
0001a0 5d 09 3b bc 32 6c 09 bd 92 cd 19 3e 69 2b ce 3c
       -0.011415807 -0.03355045 0.15019825 0.025167184
0001b0 3a 3f 02 3e 7d e5 37 3c f3 f4 d6 3d 8a a8 26 bd
       0.12719432 0.011224148 0.10495939 -0.040688075
0001c0 65 6c 07 3e 05 e1 96 be 1a e9 79 bd 60 8b 14 3d
       0.13224943 -0.2946855 -0.06101332 0.03626573
0001d0 a9 86 a3 bc 98 38 89 3d 12 8c e0 bd 55 a2 ea 3c
       -0.019961672 0.067002475 -0.10964216 0.02864186
0001e0 88 20 cd bb a0 9e b8 bd 3a 8f 86 be 97 34 07 3d
       -0.0062599815 -0.0901463 -0.26281148 0.033009138
0001f0 a8 66 fb 3c 68 2a f5 bd b1 eb 8e bd 47 34 06 3d
       0.030688599 -0.11970979 -0.06978548 0.0327647
000200 6c 68 c2 3d da d1 9f 3d f7 1c b7 3d f1 38 bb bd
       0.09492573 0.07803698 0.089410715 -0.0914172
000210 ab ee 8b bd 73 4e 16 be 7b bc c6 3c 66 b2 05 be
       -0.06832632 -0.14678364 0.024259796 -0.13056335
000220 a4 e9 57 3d d0 57 89 bf e7 99 2a bc c0 96 88 bb
       0.05271305 -1.0729923 -0.01041267 -0.0041683614
000230 7c a4 7b bd bf 52 9b bd 04 cd 00 be 40 1d 20 3d
       -0.06143616 -0.07584142 -0.12578207 0.039090395
000240 0a b2 c3 bd c8 7f c5 bc 6b 04 95 3d b1 9d 90 3c
       -0.09555443 -0.024108782 0.07276233 0.017653318
000250 d4 94 b3 bd 76 a6 12 3d bb ea ef bd f5 10 2a bd
       -0.08768621 0.03580328 -0.11714693 -0.041520078
000260 6e 44 12 3c b0 af 06 be ae 02 49 bd 2d 04 09 3e
       0.008927448 -0.13152957 -0.04907482 0.13380499
000270 af 57 d9 3d f2 16 0b be 81 98 2b bc 69 2e 8f 3d
       0.106124274 -0.13582972 -0.0104733715 0.06991274
000280 4e 34 bc bd 61 04 bb 3d c1 91 b7 bc 46 2f b0 3d
       -0.09189664 0.091316946 -0.022408368 0.08602767
000290 ba f4 c1 bd d5 69 56 3d 49 b5 8b ba 48 29 aa 3d
       -0.09470506 0.052347023 -0.0010658886 0.08308655
0002a0 8e 16 ab 3c aa 79 63 3d aa 26 6b 3d 2d fb 77 3d
       0.020884778 0.05553595 0.05740992 0.060542274
0002b0 6b 16 dc be 93 23 5b be e1 2f 57 3d a7 bf 00 be
       -0.42985854 -0.21400289 0.052535895 -0.1257311
0002c0 ac aa b9 3d 04 c9 e7 bd ea 37 c7 bd 40 17 27 3e
       0.09065756 -0.113176376 -0.09727462 0.16317463
0002d0 4d 64 67 3d 05 a6 c9 3c da b6 76 3d d9 d4 28 bd
       0.05649214 0.024615297 0.060232975 -0.041218612
0002e0 4f 1e c6 bb 76 c7 3f be 5e 53 c1 bc c5 20 3d 3d
       -0.0060460935 -0.18728432 -0.023599323 0.04617383
0002f0 7a 51 f8 bd 0d 82 1d be d6 91 5b bd 3f d0 9d bd
       -0.121249154 -0.15381642 -0.053605877 -0.077057354
000300 15 ce 22 3c e3 93 26 3e 82 1f 08 bc d6 41 d6 3d
       0.009936829 0.16267352 -0.008308293 0.10461776
000310 61 39 df bd a1 c9 da bf f1 68 45 bd 06 1c 3a be
       -0.10899616 -1.7092782 -0.048195783 -0.18174753
000320 91 32 b8 3c 8e dd 4c 3d a4 8c 86 bd 3b a3 d1 bd
       0.02248505 0.05001598 -0.06569794 -0.10236212
000330 df 9e 57 bd 23 20 95 3d 63 95 88 bd 15 cb e1 3c
       -0.052641746 0.0728152 -0.06669118 0.027562657
000340 d2 56 f5 bc 5e b7 64 bc e1 7f d4 bd 7b 7d 72 bc
       -0.029948626 -0.013959734 -0.103759535 -0.014800425
000350 f9 08 6a bc 6a 97 a1 bc d6 06 02 3e c6 93 85 bd
       -0.014284366 -0.01972552 0.1269792 -0.06522326
000360 d5 f9 c8 bd 87 81 3d 3d 49 48 e1 bd 83 11 03 be
       -0.09813277 0.046266105 -0.110001154 -0.12799649
000370 6a 65 d8 3b e5 9b 08 3c 51 9b af 3d 5e e6 c2 3d
       0.0066038864 0.008337949 0.08574546 0.09516595
000380 47 4d 0b 3e 16 9b 0d be 51 a9 4a 3e f9 2d 48 bd
       0.13603698 -0.13828692 0.19791152 -0.048871968
000390 52 1e 61 bd 98 c4 24 3d fb d3 99 be 51 bc 93 3d
       -0.054960556 0.04022655 -0.3004454 0.07213653
0003a0 d9 2a 73 3e 79 d1 41 be d4 86 ed 3c f2 8f 19 bd
       0.23746814 -0.18927564 0.028994955 -0.037490793
0003b0 dc 4c 00 be 45 eb 89 bd e8 6b da 3d 02 6a 59 be
       -0.1252932 -0.06734327 0.10665113 -0.21231845
0003c0 8a 1f 8b bd a9 e1 ac bd f7 e9 97 bd c9 18 74 3d
       -0.06793125 -0.08441479 -0.07417672 0.05959395
0003d0 6c 8f 31 be 7a 15 79 bc e7 d0 3c 3b 32 dc 47 3d
       -0.17339867 -0.015202874 0.002881104 0.04879398
0003e0 90 ab b5 bc 74 85 b5 bc 01 c1 a5 bd 17 40 83 3d
       -0.022176534 -0.022158362 -0.08093453 0.064087085
0003f0 aa 60 24 bd 68 18 9f bd eb 4d fd bd 89 53 2f 3e
       -0.04013125 -0.07768327 -0.12368377 0.1712171

rdbs.0.last_conv.bias f4 [12]
000000 26 c3 bc bc e2 ec 02 bd d2 59 a5 3d 3d 43 8b 3d
       -0.023042273 -0.03196419 0.080737725 0.06799934
000010 10 24 9e 3d e0 17 b6 bd 91 04 04 bd 0e cd c1 3b
       0.07721722 -0.088912725 -0.032230917 0.005914337
000020 82 3a 6e 3c d2 39 91 bd f9 ed 1d bd 10 7e 65 bd
       0.014540317 -0.070911065 -0.038557027 -0.056028426
